policy_net.pth (torch, 54329 bytes, 6 tensors)

net.0.weight f4 [128, 33]
00000000: 8a3d cbbd 0b95 2bbe 7381 f2bd 69b5 91bd
00000010: 4ad1 953d 6463 173e 5e29 04be d88e 143e
00000020: 5c14 33bd dd6a fb3d a487 813d 51c5 ba3b
00000030: f1d0 b9bd fe71 c03d 11b9 10be 0608 933d
00000040: cd1b 293e f9ce 98bd 8aa4 393d 3699 123e
00000050: 586e 87bc d8fa 143e a2b5 20be 8426 9cbc
00000060: 5aaa 05bc 7169 b3bd 0cf5 0d3e 4463 8fbc
00000070: 1a71 10be d2b3 79bc 3a57 953c abad f0bd
00000080: afdd a1bd 3aff dcbd dc6d cfbc f8d2 f3bd
00000090: 93c3 b5bd 5adc 8f3d 2ebb 47bd df9d 563d
000000a0: 6c0c a13d 2ba4 c13d 3fc1 9a3d 8e39 31bd
000000b0: f893 35be 0f21 2f3e 864d 753d d4d1 c33c
000000c0: 8e2f 2f3e 2e54 203e 1055 bdbd d6c9 063d
000000d0: c1fb 1ebe c13e 0bbe e203 723d 319d 28be
000000e0: f9bf 2cbe 826a 09be b73f 1e3e be88 003d
000000f0: d989 8a3d 78a7 5a3d 7813 b4bc 0a8a 1a3e
00000100: d65a 1f3e 7c3e 17bd ccf1 a9bd ec79 153c
00000110: 1437 eabd 58f8 b63d b6aa 7abd 9bea 583b
00000120: fe68 b5bd 3c02 5cbc 0468 ddbc 4ff2 9b3c
00000130: 3a55 31be c216 bb39 7468 6a3d 3bd0 2b3d
00000140: 5300 ffbd 7dea 63bd 3b45 b43b f43d 37be
00000150: d172 e93b 9c48 b6bd de1b 29be 53d3 51bb
00000160: 277a 83bd fb3f 87ba acfe b73d cb0a 32be
00000170: 2673 023e aac2 ebba fbb7 163d 7268 a3bd
00000180: 72a2 b83d 0d74 3ebe 30c0 c3bd d50f 153e
00000190: b9f8 0b3e 4b96 29be 49f9 0f3e 9bd0 273d
000001a0: 05a0 003e b75a b83c dc3d dfbd 86a9 083e
000001b0: e5cb 283e 211d 91bc e88f f6bd 9d60 08be
000001c0: 5a20 1b3e f727 cfbd 4c0c 02be 0284 7ebd
000001d0: 61ad cd3d 65c7 b4bd 6f09 bfbd cddd 22be
000001e0: e1e4 16bc 5d89 18bd 4ead e03d 99fa 28be
000001f0: d3cf b33d f405 19be 187d d13d 2266 ffbd
00000200: eac1 aabd 4dc0 b83d db74 053e 1cfa 07be
00000210: 4953 86bb aec1 143d 553b e6bd 373a 043e
00000220: dd97 cd3d 8439 793d 8435 cdbc b3b1 48bd
00000230: a48d 513d 27de 36bc 30f9 5bbd 39db 2cbe
00000240: 7074 d13b 2c10 44bc ca32 26bd 05a7 11be
00000250: 620d ad3d a25b 293d 4e4b 15be 612c 053e
00000260: 2f27 e9bd 50a2 04be b65a 003c c451 f23d
00000270: 17da 633b 585e 843c a4ef b2bd b6d3 2c3d
00000280: 092d 873d eafc 613d 5945 323d 297a 943c
00000290: 2db2 1b3e 8ab0 35bd b7c7 fb3d 6e68 40be
000002a0: 809b 7bbc 18c7 9d3a 57ea e43d d47a 42be
000002b0: 1f45 173d a5a8 bb3d 4960 d1bd 33a1 2dbe
000002c0: e614 96bd 0fa8 13be ec2b 7cbd 3096 eaba
000002d0: ae8f db3d 38af 113e 0ea9 d4bd eda5 d73d
000002e0: 5360 1c3e fb12 bd3d c65a 26be bfc7 d73c
000002f0: a7e1 1a3e b551 cd3c d9c9 20be 0aac 09be
00000300: cad5 5b3d 1bbe 423d 4bd0 3abe bdd5 f23d
00000310: 9ef4 77bb 3eef 173e bb85 293d abbb a7bd
00000320: 09c2 753c bad7 e2bd 2574 84bd 57d6 293d
00000330: fe0e 85bd 097b ab3d 22f2 afbd 1cb4 32be
00000340: 8d9d 1bbd e01e dabc a439 023e efd4 23be
00000350: 8232 2bbd 2261 72bd 51e5 433d 2925 8e3d
00000360: b76f 823d 4e16 11be fb43 28be 9b38 7f3d
00000370: 822e 2bbe 2d71 ca3d c14c 4a3d 5a86 2c3d
00000380: ba1d a43d 6dbd de3d 579d b93d 2d53 22be
00000390: 005a ba3d ef6a c23d c3d6 0a3e a4b3 b03d
000003a0: f5e1 033d a9a6 3abe 9abe 083e cc0d 0d3e
000003b0: 4688 203e d48b 7f3c 6388 233e 94d2 3ebe
000003c0: e3a2 34be 8c3a abbd 3cde 823d 4265 da3d
000003d0: 8695 943d fd78 7bbd 962f e1bd e72c 1fbd
000003e0: 60e4 c7bc 17f8 ecbd 3e7c 35be ab11 813d
000003f0: 8f89 bc3c a86c 3cbe 6a6c dc3d 2078 cd3d
-0.09923847 -0.16756074 -0.11841097 -0.07114679 0.07315309 0.14784008 -0.12906405 0.14507616
-0.043720588 0.12276242 0.063246995 0.0056997915 -0.090730555 0.09396742 -0.14133097 0.07179265
0.16514511 -0.07461352 0.045322932 0.14316258 -0.016532108 0.14548814 -0.15694287 -0.019061334
-0.008158291 -0.08760346 0.13863009 -0.017503388 -0.14105645 -0.015240626 0.01823007 -0.117518745
-0.07903611 -0.10790868 -0.02532094 -0.119054735 -0.088751934 0.070244506 -0.048762493 0.05239665
0.078636974 0.09455141 0.0755639 -0.04326778 -0.17732227 0.17102455 0.059888385 0.023903765
0.17107984 0.15657112 -0.0924474 0.03290733 -0.15525724 -0.13598157 0.059085734 -0.16466214
-0.16870107 -0.13419536 0.15453993 0.031380408 0.067645736 0.053382367 -0.02198194 0.1509172
0.15561995 -0.036924824 -0.08298072 0.009123307 -0.114362866 0.089340866 -0.06119796 0.003309882
-0.08857916 -0.013428267 -0.027027138 0.01903644 -0.17317668 0.00035684375 0.05722852 0.04194663
-0.12451234 -0.055643547 0.005501417 -0.17894727 0.007124283 -0.08900568 -0.16514537 -0.0032016828
-0.06419783 -0.001031875 0.08984122 -0.1738693 0.12739238 -0.0017987092 0.03679655 -0.07978906
0.09015359 -0.18598957 -0.09558141 0.1455682 0.13669099 -0.16561238 0.14059938 0.040970426
0.12561043 0.022504194 -0.109004706 0.13345918 0.1648403 -0.017714085 -0.12039167 -0.13318105
0.1514906 -0.101150446 -0.12700003 -0.06213761 0.10042835 -0.08827094 -0.09327971 -0.15904923
-0.009209842 -0.037240375 0.10970555 -0.16501845 0.08779874 -0.14943677 0.10228938 -0.12470652
-0.083377674 0.090210535 0.13032858 -0.13279003 -0.004099284 0.03631752 -0.112417854 0.12912832
0.10038731 0.060845867 -0.025049932 -0.048997592 0.05116047 -0.011161364 -0.05370444 -0.16880502
0.0063920543 -0.011966746 -0.04057578 -0.14223869 0.08449818 0.041347153 -0.14579508 0.1300521
-0.11384427 -0.12952542 0.007834127 0.11832002 0.0034767443 0.016158268 -0.08737114 0.04219409
0.06600387 0.05517284 0.043523166 0.018124657 0.15204687 -0.044357814 0.12293952 -0.18789837
-0.015356898 0.0012037484 0.11177509 -0.18992168 0.036931153 0.09163026 -0.10223443 -0.16956024
-0.07328205 -0.14419578 -0.061565325 -0.0017897543 0.10720764 0.14226997 -0.10383807 0.10529695
0.1527112 0.09232136 -0.16245565 0.026340364 0.15125142 0.025063375 -0.15701999 -0.13444534
0.053670682 0.04754458 -0.1824352 0.118571736 -0.0037835012 0.14837357 0.0413873 -0.08190092
0.014999875 -0.11076303 -0.06467465 0.041464176 -0.06497 0.083730765 -0.08591105 -0.17451519
-0.03799205 -0.02662605 0.127173 -0.15999196 -0.041796215 -0.059174664 0.047826115 0.069406815
0.06368964 -0.14168665 -0.16432182 0.062309843 -0.1671696 0.09884868 0.049389604 0.042120315
0.080134824 0.10875974 0.09063213 -0.15852042 0.090991974 0.09493052 0.13558488 0.08628014
0.03219791 -0.18227638 0.13353959 0.13774794 0.15676984 0.0155973025 0.15969996 -0.18635017
-0.17640261 -0.08360776 0.06390044 0.10663845 0.07255082 -0.06139468 -0.109954044 -0.03886118
-0.02440089 -0.11570757 -0.17723176 0.06302198 0.023014812 -0.18400824 0.10762866 0.10032678

net.0.bias f4 [128]
00000000: 6613 f8bc 2fd8 f53c ceaa 043e feb8 f3bd
00000010: ba6e a63c 8947 aa3d 43db 0a3e 1831 2abd
00000020: d16a c2bd 97bd dabd ca7f 043d 2177 5bbc
00000030: e94f 07bd f469 783b a0f1 5c3d 41e9 983b
00000040: 3cb3 d8bd dc91 f83d 73b0 b8bc 99b6 b1bd
00000050: fb4e b2bd de5c 193e 7b3c 29be 66e8 1ebe
00000060: 3328 db3d 0c30 133e 7159 cabd b217 483d
00000070: 0377 033e 4f0c 023e 0b6c 683d 9f05 973c
00000080: f800 a2bd 9d0f 0e3e ee35 1f3e 7bb9 c23d
00000090: 47f8 bbbd eafe f83c d1a4 1a3e 6a36 c7bc
000000a0: 5559 eb3c e468 27be bff3 de3d 8765 b23d
000000b0: 7d93 0dbe b292 96bd b0f1 19be 9074 423d
000000c0: 011d 933d 7961 973b 7f7a 6d3d 4e78 603d
000000d0: ca88 92bb ed22 30be d1f5 14be 31c4 dabd
000000e0: 53fc b4bd 4f82 f03d f2fa ccbd 75c7 2bbd
000000f0: bb96 e23d d66d d33d 7bca 08be e7a9 263e
00000100: 563d 1ebe 7570 e1bc a00a e2bd b862 25be
00000110: e7d2 c9bd 792d 103e e6de 94bc 3fb5 21be
00000120: 87a4 07be a73a 9c3d e295 553d 76f9 7abc
00000130: 1249 08be b5f9 fcbb a647 dabd 4717 29be
00000140: 16b4 163d c141 873c b771 913d 96c0 70bd
00000150: 67ae cabd 28a4 023e 41c5 d83d 25a8 7e3b
00000160: f579 f4bd 8884 653d ee1f 67bd 8f57 25be
00000170: 3535 25be 83e2 2d3d 9eec 333d 5f0c 3b3c
00000180: f43f 753d 3bf7 a13d 5333 06be d59e 983c
00000190: 926c f6bc cf0c 1abe e7e9 b6bd 888c 58bd
000001a0: d19a a13d 8a74 9bbc fac5 be3d c0a9 5a3d
000001b0: 9a7c 083e f2d5 253e 052b b53d 676a 0bbe
000001c0: 232f 993d 37a4 b2bd 0769 cbbd 9a3b 96bd
000001d0: 7938 1dbe 899c afbd b3ed 2c3c ce55 8ebd
000001e0: e101 9abd 8730 20be 7aca 2d3e 8579 c13c
000001f0: c23f 8cbd d9b2 213e 4562 1fbd a7f7 183e
-0.030282687 0.030010311 0.12955782 -0.11900519 0.02031647 0.083144255 0.13560204 -0.041550726
-0.0949303 -0.10680693 0.03234843 -0.013395102 -0.033035193 0.003790495 0.05394137 0.004666478
-0.10581061 0.121371955 -0.022545075 -0.08677406 -0.087064706 0.14976832 -0.16526978 -0.1551834
0.10701027 0.14373797 -0.09880341 0.048850723 0.12838368 0.12700008 0.056743663 0.018435298
-0.07910341 0.13873143 0.15547916 0.09508034 -0.091782145 0.03039499 0.15101935 -0.024317939
0.02872912 -0.16348606 0.10886335 0.08710771 -0.13825794 -0.07352199 -0.15033603 0.047474444
0.071832664 0.004619774 0.05797815 0.05480223 -0.004471873 -0.17200823 -0.14546897 -0.10681952
-0.088371895 0.117436044 -0.100088015 -0.041938264 0.11063906 0.10323684 -0.1335849 0.1627575
-0.15453085 -0.027519444 -0.11037183 -0.1615094 -0.098546796 0.14079846 -0.018172693 -0.15791796
-0.13246356 0.076283745 0.052144893 -0.015318265 -0.13309124 -0.007720197 -0.10658197 -0.16512786
0.036792837 0.016510846 0.071017675 -0.058777414 -0.09896546 0.12757933 0.10584498 0.0038857546
-0.11937324 0.056034595 -0.056426935 -0.16146682 -0.16133578 0.042452347 0.043926828 0.011416524
0.059875444 0.079084836 -0.13105516 0.018630425 -0.030081067 -0.15043949 -0.08931332 -0.052868396
0.07890857 -0.018976469 0.09315105 0.053384542 0.13328782 0.16194895 0.08846096 -0.13614808
0.07479694 -0.08722728 -0.09932142 -0.07335587 -0.15353574 -0.085747786 0.010554719 -0.0694996
-0.075198896 -0.15643512 0.1697177 0.023617515 -0.06848098 0.15790881 -0.038912077 0.14938222

net.2.weight f4 [64, 128]
00000000: 15b0 e1bc 03e1 2b3d dc08 4abd e688 423d
00000010: 6c80 cfbc dd91 7a3d 27c1 95bd e226 78bd
00000020: 0cdc 8a3c b875 99bd e03f 85bd 7d65 943d
00000030: 854a 77bc bead 60bd 5eaa 353d d601 9c3d
00000040: bf8f 32bd c899 f73c bf39 f33c f59c 653d
00000050: 2361 5f3b ff0d 1abc fc5d b23d e070 b23d
00000060: b65f 14bd b23e f7bc 02fb 3cbb 91ad 1d3d
00000070: 8878 983d 1427 393d c570 b0bd 720b 553d
00000080: b356 84bc bf82 07bc 0b72 333d d36d 74bb
00000090: 1c34 863b 12ba 6bbd bd53 65bd 0e1a e3bb
000000a0: 9854 b3bd 1e2c 33bd 5789 a8bd 8e8d 923d
000000b0: ee0a 9f3d 503d 10bd f77b a13d de59 86bd
000000c0: 45f4 81bc 8552 573d 3ab3 843d a0a6 883c
000000d0: 7a0d 42bc e8d3 0c3d 51e2 59bd cfd0 a63c
000000e0: 60a7 8fbd 2dfa b2bd 3cbc 153d c49c d1bc
000000f0: 3bad aa3d 71d7 753d d8e3 5bbd 71c6 8ebd
00000100: 2cff e4bc c92c f5bc ca7d 7cbd 41d9 25bc
00000110: 146c 8c3d b44e f1bc 145b 903d 40f9 4dbd
00000120: a562 eb3c 4ca1 88bd 052b 55bd 4d5a 99bc
00000130: 2a1d a53d 5c24 b43d a3b6 c53c 3d48 3b3d
00000140: 90fa 97bd 6943 69bd 13dc ddbc 924b 973d
00000150: 79ec 48bd d23b 1d3d eec2 a03d 01eb e3bb
00000160: e0ff d0bc 71a1 70bd 5e74 da3b fd38 f4bc
00000170: 3121 b9bc 1d0d 57bd 737f 5cbb 92da 9d3d
00000180: 2521 09bd e93a 6cbd e0e7 ccbc e556 a1bd
00000190: 56c1 833d 0b76 3f3d 16f8 063d 30b2 e43c
000001a0: 70ce 91bd 612c 123d 376b 8b3a 859c 4dbd
000001b0: b83a 7dbd ffc0 9c3d 167c 873d 8515 553d
000001c0: f991 8e3d fce1 64bd b106 b6bb dc82 5fbd
000001d0: 891a 623d a606 99bd f4e3 e33c 2c51 ffbc
000001e0: 230e cfba 49c3 80bb aa50 683d 27f2 37bd
000001f0: 30a4 01bc 3310 a43b db19 8fbc 6438 35bd
00000200: 22e9 40ba 079d 003c bbf9 f63c 3f05 5b3d
00000210: 6095 40bd 5469 443d 73c0 a4bd cb64 1d3c
00000220: a96a d33b ca86 8b3d 8bb5 9e3d 5f59 b3bc
00000230: cbf1 8e3d 22e1 ba3c 8abf bc3d c41d 393c
00000240: c5df 92bc 90dd 0fbd e9d5 4ebd bce5 2e3c
00000250: e9fd 153d 247f 8abd d6a9 543d 259c 2bbc
00000260: 32f4 37bd 5cfe d23b df81 4fbd ac42 bb3c
00000270: cc3e 883d 3f80 d93c 6060 a23d 1057 f8bd
00000280: 7d07 7dbc cba7 d73d 9d00 34bc f7ce 5c3d
00000290: 5992 3dbd 082e a73d 2796 b0bd d5be 9cbd
000002a0: a26d f7bc e140 a03d 1a07 23bd 9fd1 0abd
000002b0: 896a 9f3d 2d85 773d d9ed dc3c 61bf acbd
000002c0: ac59 debc f347 5bbc 8688 54bd fbd9 abbb
000002d0: 8f6c 12bd ba45 2bbd 1f33 9abd e5a7 a63c
000002e0: 0d3e 79bc 6811 033d 2233 ae3d e919 353d
000002f0: 4b99 64bc 5aad cc3d 54f6 8d3d 8fce 313d
00000300: 160f 13bd 00a4 623d e67d 9e3d 7844 52bd
00000310: c598 9abd ed86 96bc 936a a23d 5903 b0bd
00000320: ef60 9cbd 5ef0 b4bd 9bf8 abbc b7c8 173d
00000330: fde6 d73d 2e67 c8bc 7f30 303d 88b7 043d
00000340: 1ee4 f83d 0d07 5bbb 6014 f13b f146 763d
00000350: cfe0 aa3d 2429 0dbd 8ac8 3ebd cfc8 e73c
00000360: fe51 04bd 87d3 da3d f9d4 4ebd a079 63bd
00000370: fedf 5abd f86d 583c 2c3b 3d3c 78f2 9a3d
00000380: c24f 5c3d 7e99 c93c 2b7b c33c 635c 2c3d
00000390: 1c4e 943c 664b 823c 2d65 9d3c a95d 2a3d
000003a0: 966c c93c 7470 b0bd 5410 a6bd f29d 7ebd
000003b0: a660 e53c 57fc 683d caf7 eabc e14e 49bd
000003c0: fd17 093a f3e9 85b9 1c31 a9bd 83a8 66bd
000003d0: bac8 a5bc e890 b23c 431a 9fbc a397 2b3c
000003e0: 30e2 b13d ab56 bb3d b84f 0c3d ed22 013d
000003f0: 20a6 8abd d95c d63d c123 0e3d f66b a73d
-0.027549783 0.041962635 -0.049324855 0.047493838 -0.025329791 0.061174262 -0.073122315 -0.060583957
0.01695063 -0.07493156 -0.06506324 0.0724592 -0.01509345 -0.054853193 0.044351928 0.07617538
-0.04359412 0.030224696 0.029690621 0.05605789 0.0034084998 -0.009402751 0.08709332 0.087129354
-0.03622409 -0.030181263 -0.0028836136 0.038495604 0.074448645 0.045203283 -0.08615259 0.05201287
-0.016154623 -0.008270918 0.04380993 -0.0037296906 0.0040955674 -0.057550497 -0.055988062 -0.006930596
-0.08756369 -0.043743245 -0.082293205 0.07155906 0.077657565 -0.035214722 0.078849725 -0.065601096
-0.015863547 0.05256893 0.06479497 0.016681015 -0.011844033 0.034381777 -0.053194348 0.02036324
-0.07014346 -0.087391235 0.036556467 -0.025587447 0.08333822 0.060019914 -0.053684086 -0.069714434
-0.027953707 -0.029928582 -0.0616434 -0.010122598 0.06856552 -0.029456474 0.07048622 -0.05028653
0.02873356 -0.0667139 -0.05204298 -0.018719817 0.08062203 0.087959975 0.02413494 0.04572319
-0.07420838 -0.056949053 -0.027082479 0.07387461 -0.049053643 0.038387127 0.0784968 -0.006955505
-0.025512636 -0.058747713 0.006666704 -0.02981233 -0.022598835 -0.05250274 -0.0033645302 0.077077046
-0.033478875 -0.05767337 -0.02501291 -0.07877902 0.0643336 0.046743434 0.032951437 0.027916998
-0.07119453 0.035686854 0.0010636811 -0.050198097 -0.061823577 0.076539986 0.066154644 0.052022476
0.06961436 -0.055879578 -0.005554997 -0.054568157 0.055201087 -0.07471971 0.027818657 -0.031166635
-0.001579706 -0.00392953 0.056717552 -0.04490867 -0.0079126805 0.005006814 -0.017468384 -0.04424323
-0.0007358958 0.007849938 0.030148378 0.0534718 -0.047017455 0.04795201 -0.08044519 0.00960655
0.006451924 0.06812818 0.0774947 -0.021893201 0.06979712 0.02281243 0.09216221 0.011298601
-0.017928967 -0.035123408 -0.05049697 0.01067489 0.0366191 -0.067625314 0.05191978 -0.0104742395
-0.044910617 0.0064390134 -0.050660964 0.02285894 0.066526026 0.02655041 0.07928538 -0.12125981
-0.01544368 0.10530051 -0.010986474 0.053908315 -0.046282146 0.08163077 -0.08622389 -0.07653586
-0.030203644 0.07824875 -0.039801694 -0.033891317 0.07783992 0.06042974 0.026968883 -0.0843494
-0.027142368 -0.013383853 -0.05188801 -0.005244491 -0.03574806 -0.041814543 -0.07529282 0.02034373
-0.015212548 0.03199902 0.085058466 0.044214163 -0.0139525635 0.09994002 0.06931749 0.04340988
-0.03590306 0.055332184 0.07738857 -0.05133483 -0.0754867 -0.018374885 0.07930484 -0.085943885
-0.07635676 -0.08834909 -0.020992568 0.03705665 0.105421044 -0.024463262 0.043015 0.03240159
0.12152885 -0.003342095 0.007357165 0.06012625 0.0834366 -0.034463063 -0.046577968 0.028293995
-0.032304756 0.10684877 -0.050496075 -0.055535913 -0.05343627 0.013209812 0.011549752 0.075657785
0.053787 0.024609324 0.023862442 0.042080294 0.018103652 0.015905093 0.019213283 0.041593228
0.02458791 -0.08615199 -0.08108583 -0.062162347 0.028000187 0.056881275 -0.028682608 -0.04914749
0.000522971 -0.00025542043 -0.0826132 -0.05631305 -0.020237315 0.021797612 -0.019421702 0.010473165
0.0868572 0.0914739 0.034255713 0.03152745 -0.06769967 0.10466928 0.034702066 0.08174889

net.2.bias f4 [64]
00000000: f151 e6bc 7987 7c3d 5530 5b3c d7d1 e23c
00000010: b154 b4bd 3634 b4bd 1296 5bbd 843f 5dbc
00000020: b57e 8fbc 374d d63b 84ca 66bd e4c9 b13d
00000030: d843 213d 3126 8c3d 20a6 33bc eec8 2abd
00000040: 3b06 1b3d 687c 30bd b7ed de3c dd74 59bc
00000050: 347b a6bd e5f0 d03c 914c 67bd 024c 043d
00000060: 1cab d0bc 6b18 ab3d fa37 6abb b9aa a8bc
00000070: 6e92 723d fd2b 66bd 60b4 523d 67c3 cdba
00000080: 5992 443c 2bcb 53bd 22f7 273d 6b4b 9c3d
00000090: ff25 a0bd 15f6 3dbd e1e7 503d 7f53 923d
000000a0: b801 82bc d6da 14bd 7269 033b f3d4 a53b
000000b0: e02d 723d bad8 a6bd 5b8a b4bd 9bec 6a3d
000000c0: 310c 20bd ef3e 743c a37f bcbc 23aa 66bd
000000d0: 0d67 383d 18ba 00bd f2c3 d33b 7fc6 6e3c
000000e0: ed72 50bd f14c 2ebd c880 59bd 42d7 743d
000000f0: 7b95 9c3d b4aa d1bc 17dd 84bd 7df2 7d3d
-0.028115245 0.061652634 0.0133782225 0.02768795 -0.08805216 -0.08799021 -0.053609915 -0.013503913
-0.017516473 0.0065399664 -0.056345478 0.08681086 0.03937134 0.06843222 -0.0109649 -0.041695528
0.03784774 -0.043087393 0.02721296 -0.013272491 -0.08128968 0.025505492 -0.056469504 0.03229905
-0.025472216 0.08354267 -0.003573893 -0.02058922 0.059221677 -0.056194294 0.05144155 -0.0015698493
0.011997783 -0.051707428 0.04100717 0.07631572 -0.07819747 -0.04637726 0.051002387 0.07144832
-0.01586996 -0.03634151 0.0020051864 0.005060786 0.05912578 -0.08146806 -0.08815452 0.05735455
-0.039074127 0.014907583 -0.02301008 -0.0563146 0.045020152 -0.031427473 0.0064625675 0.014573692
-0.05089085 -0.042553846 -0.05310133 0.0597756 0.07645699 -0.025594093 -0.06487482 0.061998833

net.4.weight f4 [3, 64]
00000000: 8402 d13d ba7d 213d 0751 613c f7ec 5f3d
00000010: 80f8 b4bc 863a 61bd 60fc a93b 48ee d83c
00000020: b834 8ebc 1a6c 2d3d 8e31 bf3d 9b88 763c
00000030: 847d febc 0f67 b53d d309 823d f8b1 aabd
00000040: 12b6 993d 9856 6e3d f5d8 81bd e352 89bd
00000050: 6ca8 ff3d 88fc b1bd 1eb0 053d 0820 84bd
00000060: 9423 4fbd 217d cc3d 4ee7 403d 941d 8b3d
00000070: 1c45 7e3d 333b 28bd 6e37 87bd 2394 363c
00000080: e368 4e3d becc edbd e9d4 e53d 4991 a2bd
00000090: 6027 c0bd f966 8ebd f038 6f3d f7f7 3f3d
000000a0: 4f4d 66bd 9abc 953d 351d 413d 995d cc3d
000000b0: 4732 db3c ddfc 263d 2e15 ac3d c1f6 22bd
000000c0: 6ddb a03c eec4 8a3d fed5 f63c ee41 8e3c
000000d0: 519f 993d 863f ea3d 0d4d f33d 588c bf3c
000000e0: 5109 0fbd 57eb 973d c0f0 6ebd 2d89 f53c
000000f0: e84f 80bd 79cd a7bd 8a79 c03d e8b2 af3d
00000100: 0092 393d 3abd 0cbe 21be 11bb 0bf7 933d
00000110: 74a3 3b3d 8599 983d 64ca 12bd 2490 adbd
00000120: 8c71 1dbc 3187 203d 70ac fc3c 8ba5 af3d
00000130: 61d8 333d 3bf0 c7bc 76bc d0bd 013a 1e3d
00000140: fe43 21bd 8375 96bd 2d22 40bd b116 8d3d
00000150: 9a8d b23d 047e c53d 913a d03c c2cf fbbd
00000160: 40d6 9d3d e391 0dbd e51f dcbd 9ca0 5f3d
00000170: 8e89 b63d 5416 56bd d872 b9bd 0687 55bc
00000180: d2a1 c63d 2706 db3d af96 173d 7de5 e0bd
00000190: 3858 53bd f309 b03c d04e 5fbd c407 d9bc
000001a0: c6e3 c13d 60c5 ce3c 9da3 65bd 8079 61bc
000001b0: 7015 993d 043e babc a5b5 97bd 7678 3a3d
000001c0: cc7f bb3c d0e8 74bd e462 d2bd f9d8 893d
000001d0: e6f4 1e3d 50cf a83c 265e 19be 63ab 973d
000001e0: 7e28 223d 5256 fb3d 1c3f 37bd 2f65 bcbd
000001f0: c866 0c3c 1763 23bd 0473 db3d 9835 49bc
00000200: b065 563d 19e6 873d 2102 4ebd 8581 5f3d
00000210: 88dc e0bd 8486 bbbd 402e d53c b053 03bd
00000220: 7945 64bd 3195 813d 089f fb3c 6c7c ba3d
00000230: 9817 0abd 64ce 68bc 2cb4 9b3c 385c c23d
00000240: 4cd7 d93d 473d eabc bf01 a43c 9800 e73d
00000250: 5446 ed3d 4c6e 083d 6c40 483d 55a1 aa3b
00000260: 6040 c4bc 53d4 da3c 9bbf 2cbd 7866 a93c
00000270: 74e4 20bd c02d 253c fbef e8bc db57 74bc
00000280: de5c e93d 36f6 abbd ccce 843d 8f3c a23d
00000290: 9c2c d2bd cb13 00be 2eb5 9b3d 43f5 4dbd
000002a0: 06d9 bd3d 78d8 fc3d f5ef e0bd 88dd 6c3d
000002b0: 4da2 debd 478c 03bd 8aef 77bd 38e7 5a39
000002c0: 64d4 bebc 5e70 9a3d 0c5c bdbd af07 943c
000002d0: bb07 ab3c c8b4 7e3d d8dd bcbd 4975 4bbd
000002e0: 483e cb3d b00e c73d fce6 e13d 911d 54bd
000002f0: 3f44 893d 5f8c 74bd d0d4 fc3c 9822 613c
0.10205558 0.039426543 0.013752229 0.054669347 -0.02209115 -0.054987453 0.005187556 0.026480809
-0.017359123 0.04233942 0.09335624 0.015047218 -0.03106571 0.088575475 0.0634953 -0.08334726
0.0750543 0.05818805 -0.063402094 -0.067052625 0.12483296 -0.08690745 0.03263866 -0.06451422
-0.05057104 0.09984804 0.04709559 0.06792751 0.062077627 -0.04107208 -0.06602369 0.011143717
0.050392997 -0.11611317 0.1122225 -0.07937867 -0.0938251 -0.06953234 0.05840391 0.046867337
-0.05622607 0.073113635 0.047146995 0.0997879 0.026757373 0.040768493 0.08402477 -0.039786104
0.01963588 0.067758426 0.030131336 0.017365422 0.0750109 0.114378974 0.11879931 0.02338235
-0.034920994 0.074179344 -0.058335066 0.029972637 -0.06265241 -0.08193488 0.09398182 0.085790455
0.045305252 -0.13744059 -0.002223857 0.07224854 0.045810178 0.074511565 -0.035837546 -0.08474758
-0.009609591 0.03919143 0.030843943 0.08576497 0.043907527 -0.024406543 -0.10192196 0.038629536
-0.039371483 -0.07346632 -0.046907593 0.06889094 0.087184146 0.09643176 0.025418552 -0.12295486
0.077068806 -0.034562957 -0.10748271 0.05459653 0.08912955 -0.052267388 -0.09055108 -0.01303268
0.096988335 0.10694533 0.037008937 -0.109812714 -0.051597804 0.02148912 -0.05451852 -0.02649296
0.094672725 0.0252406 -0.056064237 -0.013761878 0.07474792 -0.02273465 -0.07407693 0.045525037
0.022888087 -0.05979234 -0.10272768 0.067308374 0.038807772 0.020606667 -0.14977321 0.07405736
0.039589398 0.12272324 -0.04473792 -0.09198987 0.008569427 -0.03988942 0.10715297 -0.012280844
0.05234307 0.066356845 -0.050295 0.05456688 -0.10979563 -0.09156516 0.02602303 -0.032062232
-0.055730317 0.06327284 0.03071548 0.09105763 -0.033713907 -0.014209364 0.019006811 0.094902456
0.10636768 -0.028593672 0.020020364 0.1127941 0.1158568 0.033308312 0.048889562 0.0052072206
-0.023956478 0.026712572 -0.042174917 0.020678744 -0.03928037 0.010081708 -0.028434744 -0.0149135245
0.11394666 -0.083965704 0.06484756 0.07921707 -0.10262415 -0.1250755 0.07602917 -0.050282728
0.092699096 0.12345976 -0.10983268 0.057828456 -0.108708 -0.0321162 -0.060531177 0.00020876236
-0.023294635 0.075409636 -0.09246072 0.01807007 0.02087771 0.062184125 -0.09222001 -0.0496724
0.099239886 0.09719598 0.11030385 -0.05178601 0.0670247 -0.05970418 0.030863196 0.013741158

net.4.bias f4 [3]
00000000: 3131 d23c 300e b2bd a519 04bc
0.025658222 -0.08694112 -0.008062755
