ts_transformer.pth (torch, 461577 bytes, 30 tensors)

pos_enc f4 [1, 30, 64]
00000000: 8643 4ebd 24c3 aebd 2e15 b53c 43d4 55bd
00000010: cc7e f53d 91ef edbd 17e5 dbbd 3bfc 07be
00000020: b12a 283d 0eff 3ebd d16c fd3d 975e 563d
00000030: 97f5 f03d a957 723e b558 883d f8cf 18be
00000040: 8b3a 9a3d 809c 7cbb 5ae8 61be 0f34 ca3d
00000050: a2cc 18bc 0f54 aabd dac6 c1bd e37f 6b3e
00000060: f72e bcbd 23db 49bd 1f46 cc3d b61d 9bbd
00000070: 18af a73d 679c 57bd f58e 593d 83c8 ce3d
00000080: 64f2 31bc 25d2 85bd 6826 713d 87ab 923d
00000090: be8d 163d 2176 663c 4aef f23d 00c8 933d
000000a0: 95c5 85bd dffb d33d 7a13 c33b 53fe febd
000000b0: 3c45 24bd e01d 8fbd a63a 18bd c2b1 013c
000000c0: e113 75bd 1138 96bd 8f8f 03be 04f1 0abd
000000d0: 36c2 4bbd adbb 21bd e701 9c3d 587e a1bd
000000e0: e86a 1b3d bf9e a7bd 1ad0 c23a 6c52 53bd
000000f0: a4cb c7bd d523 09be a9d4 b6bd 426f bf3d
00000100: 4ae4 a8bd aefe 52bd 6008 7cbd 5911 113e
00000110: 3adb 16bd 9e0a 043c d1ce 3d3d 5c8c 03be
00000120: 92fc b6bc 7590 1ebe df68 b0bd dbeb 84bc
00000130: 0ed9 db3d 1c14 8bbc 7cb3 043b 36fc 22bc
00000140: 95fe 97bd 958f 1a3c 4166 31be a920 5f3e
00000150: 449c 36bd c850 063c 478d 833c 39d3 babc
00000160: 14d8 89bd 7abb 303d 373e 76bd d83c e33d
00000170: 07e2 9b3d 423a 8db9 8ed7 4bbd ee9a 033e
00000180: e45e 073d 3278 663d ef3a a83d ceb6 153e
00000190: f27f 1a3d e857 aa3c 92ad 03be 0830 c2bd
000001a0: 3042 263d 99d7 02be 0fed a43b cab4 033b
000001b0: c763 d2bd e27e 20bd 3f39 143e 2858 023d
000001c0: 456d 1dbd 654c 5b3c d334 b83d ab2f 16be
000001d0: 3ea5 40bd 973a a33d 68a9 efbc 0219 6ebd
000001e0: e40a 163e 5f9e 4bbe ba8d 503c 8217 463c
000001f0: e741 fb3d 69fd 253b 96ce 2cbd 52df b0bd
00000200: fed5 1e3e f91e b73d 3cf7 b83c abf7 4abd
00000210: 3499 453c 60c5 913d 7464 8bbd a628 96bd
00000220: 341d 39be 177b 56be 8226 8d3c 71b6 5bbb
00000230: 6414 54be b96c d63c d96c cebd 51ea f13d
00000240: 9102 923d 3433 e13c 1e5a 233e 45d6 633d
00000250: a816 37bc 0054 1b3e 3bfa 8b3d a953 bd3d
00000260: 1eba e5bd f736 52bd f426 553e c114 c2bc
00000270: 72df adbd fe01 493d a613 25be e7c2 953c
00000280: 2917 b83d 94a4 b13d 4026 e53d 91fa 6ebe
00000290: 2361 65bd d61d f3bc e096 52bd e37d e43d
000002a0: 9534 8f3d 8916 4c3d e7c4 1ebc d85a 3fbd
000002b0: 9e72 463b 8b4f ff3d 15d8 7f3d c673 483d
000002c0: 8981 6bbd e44a 743c 88d0 823c 9379 4bbe
000002d0: d745 9f3d 8b9c 03bc d777 293c 35eb 833d
000002e0: 9cf2 30be 8b7c 003e 06f5 3d3e 413c 853c
000002f0: 2d18 c53a 6bfb ee3d 74db 3ebd 8316 04be
00000300: 3305 ab3d 3755 b0bd 8179 b93d a860 393d
00000310: 1d1e cdbd 2fbf ec3d 180d 26be 6f9d debd
00000320: 06f0 de3d 1d26 003d 6e41 abbc 6a7a 25bd
00000330: 57ce 573c c82b 003d a7d1 9c3b 2f2b b6bd
00000340: d3b8 733e f61f 86bd 26c8 323d 166f 373d
00000350: 4827 d13d 8e54 2b3e 5758 d23d d3eb 63bc
00000360: a807 623b 25de f1bc 67e2 dbbd 2ab0 d7bc
00000370: df02 963d ff73 a8bd f84b c0bd 8a35 573e
00000380: 4e54 35be 8477 86bd 25ef 86be 8598 503e
00000390: d660 f0bc 9a2b 073e f3b6 f2bd 4dd8 91bd
000003a0: 2b02 493e 54aa e63c 4020 a2bc c130 ebbd
000003b0: 9ceb b4bc 32d7 06be f2bb 0c3b df77 c43d
000003c0: e0b2 73bd 1ef6 383c fab0 0fbd 482a 0fbe
000003d0: a581 65be 6cf8 2d3d 0661 aebc 2cbf da3d
000003e0: 5205 6a3d ace7 06be 5e00 083e 9857 a83c
000003f0: 4dd1 603e 2331 223d 66cd f6bd d01c a0bd
-0.050357364 -0.08533314 0.022104826 -0.05220438 0.11987075 -0.11617959 -0.10737055 -0.13279812
0.04105634 -0.046629958 0.12374271 0.0523363 0.117655925 0.23666252 0.066575445 -0.14923084
0.075306974 -0.003854543 -0.22061291 0.09873211 -0.009326132 -0.08316814 -0.09461756 0.22998004
-0.09188645 -0.04928125 0.09974312 -0.07574026 0.08187693 -0.05263939 0.05311485 0.10096838
-0.010861013 -0.065342225 0.058874518 0.071616225 0.03675627 0.01406625 0.11862047 0.07215881
-0.065318264 0.10350775 0.0059532495 -0.12450852 -0.04010509 -0.0698812 -0.037165307 0.007915916
-0.05983341 -0.073349126 -0.12847732 -0.033921257 -0.04974576 -0.039485622 0.0761755 -0.07885426
0.03794375 -0.08184575 0.0014863044 -0.051592276 -0.09755638 -0.13392575 -0.089272805 0.093473926
-0.08246668 -0.051512413 -0.061531425 0.14166774 -0.036830164 0.008059172 0.046339814 -0.12846512
-0.022337232 -0.15484793 -0.086137526 -0.016225746 0.10734759 -0.016977362 0.0020248583 -0.009947827
-0.074216045 0.009433647 -0.17324163 0.21789803 -0.04458262 0.008197971 0.016058577 -0.022805797
-0.06730667 0.04314754 -0.060117926 0.110955894 0.07611471 -0.0002693702 -0.049766116 0.1285207
0.03304948 0.05626697 0.08214366 0.14620516 0.037719674 0.02079387 -0.1285918 -0.094818175
0.040590465 -0.12777556 0.0050331424 0.0020096772 -0.10272937 -0.039183505 0.14474963 0.031822354
-0.038434286 0.013384913 0.089944504 -0.14666621 -0.047032587 0.079701595 -0.029255584 -0.058129318
0.14652592 -0.19884633 0.012729103 0.012090566 0.12268429 0.0025328046 -0.042189203 -0.08636345
0.15511319 0.089414544 0.022578828 -0.0495526 0.012060452 0.071177244 -0.06806269 -0.07331972
-0.18077546 -0.20945393 0.017230276 -0.0033525492 -0.20710903 0.02617489 -0.10079355 0.118122704
0.07129396 0.027490236 0.15952346 0.055624265 -0.011174835 0.15168762 0.06834837 0.092444725
-0.1121714 -0.05132195 0.2081564 -0.023691537 -0.084898844 0.049074166 -0.16120777 0.018281413
0.089887924 0.08673969 0.11188936 -0.23337771 -0.05600084 -0.029677313 -0.051413417 0.111568235
0.06992451 0.04982618 -0.0096905 -0.046717495 0.003028072 0.124663435 0.06246193 0.048938535
-0.05749658 0.014910433 0.015968576 -0.19870596 0.07776993 -0.008032928 0.010343513 0.064413466
-0.17280048 0.1254751 0.185505 0.016264083 0.0015037112 0.11669048 -0.046596006 -0.12899213
0.08350601 -0.086100034 0.09056378 0.045258194 -0.10015509 0.11559903 -0.16215932 -0.10869872
0.108856246 0.031286348 -0.020905223 -0.040399946 0.013171754 0.031291753 0.0047857347 -0.08894955
0.23800974 -0.06549065 0.043647908 0.044783674 0.102125704 0.16731474 0.10270756 -0.013911205
0.0034489427 -0.029524872 -0.10736542 -0.026329119 0.07324766 -0.082252495 -0.0938949 0.21016517
-0.17707941 -0.065657645 -0.26354328 0.20370682 -0.02934305 0.13200226 -0.11851301 -0.07121334
0.19629733 0.02815739 -0.019790769 -0.114839084 -0.022085004 -0.13168028 0.0021474329 0.09593176
-0.05949676 0.011289148 -0.035080887 -0.13980973 -0.22412737 0.04247324 -0.021286499 0.106809944
0.05713398 -0.13174313 0.1328139 0.02054958 0.21954842 0.03959764 -0.120508954 -0.078179955

input_proj.weight f4 [64, 7]
00000000: a13b 41be e63b 63be f2ea 583d c67b 23be
00000010: 2dbd b8bc b7c5 c63d fd5b b93e e94b 673d
00000020: ac17 533e 78d9 cc3d ef61 71be 3090 0d3e
00000030: f8b6 b0bd a989 903d 838c b5be ad26 053e
00000040: 59fb 393e 9c19 9cbe c780 ac3e ca0f 8dbe
00000050: 46a0 be3e d0dd ac3e 75f8 713e d593 133e
00000060: 5cde 2cbe 6c8f 783e 4c4f 0a3e 7954 1f3e
00000070: c86a 8abe d612 94bd e4a6 ab3e 134b a0bb
00000080: 345d 02be 6fbe 98be 5b6e dc3d 056a c1be
00000090: 6b9a 75be bd53 4a3e 6948 99be 245c bb3e
000000a0: 5bfc 9cbe 54d0 b8bd e2a2 973e ee21 91be
000000b0: da75 b7bd 5753 b0bb 3e8f 75be 7390 1cbe
000000c0: a5a4 4a3e 52eb a53e 0559 573e 412e 6b3e
000000d0: a58c 273e f7a0 843e f65d ac3e 0f37 c1be
000000e0: 3cea 983e f460 693d 045b 86bc 8f3e 8cbc
000000f0: 6cda be3d 602b bfbe 273b 99be 1f4a 8ebd
00000100: fe53 42be 2063 72be 792c 8bbe d800 b8be
00000110: e387 683e 7f32 b9bd 04a8 433e 310b 05be
00000120: 9f6e 903d ad76 263e cb70 da3d 242c b8be
00000130: 4e70 1cbe 37c3 59be 79de 21bd 79e5 ac3d
00000140: a75d 3f3e 2258 d03d 6156 a73e fbdb 253e
00000150: ad87 cebd 8a57 3d3e 8a4d b4be 5550 babd
00000160: 583c 543e 046b 78be dd4f 64bd db21 3e3d
00000170: 748c e3bd dcc6 cbbd 7d95 5abe daa6 24be
00000180: cc13 303e 4c13 223e 2b17 ba3e 4769 85bc
00000190: a42a afbd e24f 8c3e d33f 1cbe 05c2 e23d
000001a0: d132 be3e 1319 783d 627c b53e d2a6 a63e
000001b0: ef5a 26be bbe9 a2bd c683 90be 9678 0f3e
000001c0: 8d1b 23bc b4cf a6bd ac56 b0be f66c 1fbe
000001d0: d47c 98bd 660c 453e 9032 9cbe e360 663d
000001e0: dd26 2f3e cded 6c3e 3295 b33e 6688 95be
000001f0: 0cb7 243c 78c0 4cbe cf7b 9a3e 5866 973e
00000200: d32b f73d fb7f 8abe 7083 b9bd b287 96be
00000210: 93c3 0d3e f111 7dbe f4bf 8bbd 7161 9dbd
00000220: 4149 b0be 229d 80be f1eb 11be 1daf c03e
00000230: 6d07 0f3c 3012 08be 3beb 4f3d 02c5 babe
00000240: b7a1 0cbe e6bb 7dbe f6ca ae3e 48af 343d
00000250: 9217 b6be 4074 9abe 010a 403e 5fb3 c1bd
00000260: 6cfd ed3d 6918 a7be c619 533e b0e4 843e
00000270: 23da 94be 638c 2a3e 3d46 9c3e d46b b53e
00000280: 003f 8b3e d721 ab3e cfb6 593e e0ed b03e
00000290: 5353 7f3e 1415 2abe ce58 23bb b971 93be
000002a0: b33f 223e 5532 923e 7bf9 943e f9d6 1d3d
000002b0: c62c 60be 99cf 11be 4910 abbe 4406 b3be
000002c0: 5bae b83e a927 81be 53dd 99be 9715 8cbe
000002d0: f86b c0be 016c 47bd 5087 5d3e f07c 3fbe
000002e0: d05f 633d a88f 1ebd ff5c b33e c659 1d3e
000002f0: 10ce 993e 0f7f 84be 0dd3 663e e74b 9d3e
00000300: 2881 3abe f53d 0a3e 5a74 ecbd a946 a3bd
00000310: 9645 1f3e ebf8 b33e 115d a43e d5e4 81bd
00000320: 30d5 e2bc 6025 adbe 9776 95be 81a1 47be
00000330: b302 6dbe 6b45 f03c c3c5 673e c3fc 4ebe
00000340: 04d0 3a3e 5ff7 b93e a359 82be 19bd 663e
00000350: 7e81 293d 13da 37be fdc3 683e ad2d 8cbd
00000360: 8401 643e b338 41bd a48c 413e 7a9f 3abe
00000370: 12a4 5dbd c5e4 c1bd 747f f73d f05f dabd
00000380: e1b3 a83d 753f 883e cba2 c83d 336f 933d
00000390: a59c 1abd 4193 973c ea4a e33d b144 993d
000003a0: f174 b0be 2089 623e 7e42 c53c d4fb 053e
000003b0: c646 e3bd eb4b 053e c5d6 54be 61f1 af3e
000003c0: d7d6 7dbd 553e 36bb 971e 87be 4d03 953e
000003d0: 9f37 8bbe ebf6 383d 8155 b23e 8bf1 61be
000003e0: c60b 3ebe 452b a2be 6373 be3e 6d78 a5bc
000003f0: 74e6 8a3e e4e4 8dbe 79e4 6cbe 76c8 bdbe
-0.18870403 -0.22190818 0.052958436 -0.15965185 -0.022551144 0.0970568 0.36202994 0.056468878
0.20614499 0.10002416 -0.23572515 0.13824534 -0.086286485 0.070575066 -0.35458764 0.13003035
0.18162288 -0.30488288 0.33692 -0.2755111 0.37231654 0.3376298 0.23629935 0.14411862
-0.16881698 0.24273461 0.13506812 0.15559568 -0.27034593 -0.07230155 0.33525765 -0.004891762
-0.12730867 -0.2983279 0.10763236 -0.377762 -0.23984687 0.19758506 -0.29938057 0.36593735
-0.30661282 -0.090241104 0.29616457 -0.283462 -0.08958025 -0.0053810286 -0.23980424 -0.15289478
0.1978937 0.32406098 0.21030052 0.22966863 0.16362245 0.25904056 0.33665437 -0.3773732
0.29866207 0.056977227 -0.016400822 -0.017119674 0.093190044 -0.3733778 -0.29927942 -0.06947731
-0.18977353 -0.23670626 -0.27182367 -0.35938144 0.22708087 -0.090428345 0.19107062 -0.1299255
0.07052349 0.16256209 0.10666045 -0.35971177 -0.15277216 -0.21265875 -0.039518807 0.08442206
0.1868807 0.1017306 0.3268309 0.16197197 -0.10084472 0.18490425 -0.35215408 -0.09097353
0.20726144 -0.24259573 -0.055740226 0.046419006 -0.11110774 -0.09950039 -0.21346088 -0.16079274
0.17195052 0.15827674 0.363458 -0.016285552 -0.08553055 0.27404696 -0.15258722 0.110721625
0.37148145 0.060570788 0.3544646 0.3254915 -0.16245626 -0.07954737 -0.28225535 0.14010844
-0.009955299 -0.08145085 -0.34441125 -0.15568909 -0.07445684 0.19243011 -0.30507326 0.056244742
0.17104669 0.23137589 0.35074764 -0.29205626 0.010053407 -0.19995296 0.30172583 0.2957027
0.12068906 -0.27050766 -0.09058273 -0.29400402 0.13844137 -0.24713875 -0.068237215 -0.07684601
-0.34430888 -0.25119883 -0.14250161 0.376336 0.008729798 -0.13288188 0.050761443 -0.3647843
-0.13733564 -0.24778709 0.34139222 0.044112474 -0.35564858 -0.30166817 0.18753816 -0.094580404
0.11620602 -0.3263581 0.206153 0.25955725 -0.29072675 0.16655116 0.30522338 0.3543383
0.27196503 0.33424255 0.21261142 0.34556484 0.2493413 -0.16609603 -0.0024924758 -0.287977
0.15844612 0.28554025 0.29096588 0.038535092 -0.2189208 -0.14239348 -0.33410862 -0.34965718
0.36070523 -0.2522557 -0.3005167 -0.27360222 -0.37582374 -0.048686985 0.21633649 -0.18700004
0.055511296 -0.03871122 0.35031888 0.15366277 0.30040026 -0.25878188 0.22541447 0.3072197
-0.18213332 0.13500197 -0.1154563 -0.07972462 0.15553889 0.35150847 0.32102254 -0.06342474
-0.027689546 -0.33817577 -0.2919204 -0.19495203 -0.23145561 0.029329976 0.22634034 -0.20213608
0.18243414 0.36321542 -0.25459012 0.22533073 0.04138326 -0.17954282 0.22731014 -0.068446495
0.22266203 -0.047173213 0.18901306 -0.18224898 -0.054111548 -0.094674625 0.12084857 -0.1066283
0.08237434 0.26610914 0.09796675 0.07198944 -0.037747044 0.018502833 0.11098273 0.07483805
-0.3446422 0.22122622 0.024079558 0.13084346 -0.11097483 0.13017242 -0.20785053 0.34363845
-0.061972465 -0.002780815 -0.26390526 0.2910408 -0.27190873 0.045157354 0.3483086 -0.22064798
-0.18559179 -0.31673637 0.37197408 -0.020199025 0.27128947 -0.27713692 -0.2313403 -0.37067002

input_proj.bias f4 [64]
00000000: aea5 a9bd 53c3 903e 8c37 4cbd a023 d03d
00000010: 3e33 543d 0ef1 10bd 3376 343e 9000 2f3e
00000020: a992 debd 9248 61be 1108 9b3e e79c 433d
00000030: 6cee b7be 1611 dfbd b258 02be 074a 8fbe
00000040: 7aba 0b3d dbd8 b0be d0bd b5bd 6854 853e
00000050: c72a 8a3e 65d0 c13d 5d70 96be 8e60 a33e
00000060: 3c3c ff3d 63a0 523e 54a7 f13c d4bc 473e
00000070: 8004 253e 6809 b03e 839f 9e3c 9256 023e
00000080: 03e1 fabd 9b00 df3d 81f2 0d3e 0bcd e1bc
00000090: 4fe1 abbe d332 f03d e61a 02bd afe1 6a3e
000000a0: 0e95 453e 877b 803e 70e4 67be 5bc2 9dbd
000000b0: 1143 44be e542 073e b361 ee3d e63c 60be
000000c0: 9cb1 7cbe 842f 0abd 4c3e 88be 526a 673e
000000d0: 7e8d f8bd f9e0 813e 35af 623e a1d4 8ebe
000000e0: c655 54bd 09e0 c33e ac42 6ebd db48 c5be
000000f0: 116b b23e 8ce5 a63e 33fd 8bbd ab34 0fbe
-0.08283554 0.2827402 -0.04985766 0.10163045 0.05180668 -0.035386138 0.17623214 0.17090058
-0.10867817 -0.2200034 0.30279592 0.047757056 -0.3592409 -0.10891931 -0.12729147 -0.27986166
0.034113385 -0.34540448 -0.088740945 0.2604096 0.26985762 0.09463576 -0.293826 0.31909603
0.12462661 0.20568995 0.029498734 0.19505626 0.16114998 0.34382176 0.01936317 0.12728336
-0.12249949 0.10888787 0.13862039 -0.027563592 -0.33570334 0.11728444 -0.031763934 0.22937654
0.19295141 0.25094244 -0.22645736 -0.07703086 -0.19166209 0.13209112 0.116397284 -0.21898231
-0.24677128 -0.03373672 -0.2661003 0.22599152 -0.121363625 0.25366953 0.22137149 -0.27896598
-0.051839612 0.38256863 -0.058169052 -0.38532147 0.3484731 0.32597005 -0.06835403 -0.13984935

transformer.layers.0.self_attn.in_proj_weight f4 [192, 64]
00000000: d6a0 033e f3c2 853d 88c3 42bc 771c b8bd
00000010: b6f8 62bd 8088 6d3d a73d e1bc d197 7dbc
00000020: dd25 273d 13f6 77bc 1977 b23b 4cc4 76bc
00000030: da93 3bbd 79d4 97bd a7c9 bcbc 0e29 c63d
00000040: 0089 15be 495b 77bc 92d0 9c3d 84ba 09be
00000050: 29f0 4b3d 46f7 cd3d 5444 f73d 0fd6 8dbd
00000060: bbab 993c 9bcd 62bd 32ac a03c fb24 a13d
00000070: a352 163d a68f ff3a 7d75 183e 7f09 ad3d
00000080: 3270 d5bd dbb7 063e f11a bf3d b336 953c
00000090: b172 23bd 6144 e33d 5cd9 3ebc 5359 0e3e
000000a0: 10ec 64bd 2b5a 463c bd3e 1abe 946c 75bb
000000b0: 640a e5bd 3b40 a83d 8fa0 d73d dea5 8fbd
000000c0: 5749 84bd a6fe 653b d9ed 193d 0ad9 013d
000000d0: 8eaf c53d ca10 06be ceed 8a3d dcbb bb3d
000000e0: 851c 80bc 227b dd3c ea29 a53d a322 be3c
000000f0: c7c4 d03d 4827 4c3b c88d 02bc 3ae9 9dbd
00000100: d0b0 a73d 746e d83d da70 e3bd a73a c8bd
00000110: f8ec 09be 3966 67bd ae17 19be 84b3 04be
00000120: 16b8 14be 58fe fdbd 931c 20be b895 00be
00000130: 8224 3fbd ee10 a4bd 4cc5 e7bd 40e4 64bd
00000140: 6a46 0fbe 04cf 14be aba3 07be 9567 a8bd
00000150: 1064 8abd 7c9a 0dbe 8810 ef3d 9210 c7bd
00000160: 1182 e43d 3228 ec3d ab6b d63d dbd8 01bd
00000170: de11 c1bb 5239 c4bd 02db b8bd e90c 203d
00000180: 0a90 abbd a2df f63c 1848 973d 02f6 00be
00000190: 514e b93c e51f 893d ed29 e63b a586 b3bd
000001a0: 918d 7ebd bcd2 083d b230 bfbc 7a59 dc3d
000001b0: f03e 733d 4530 12be 154d e9ba 935b 69bd
000001c0: c003 bc3d 7fed 933c bbb9 133e 0295 f43d
000001d0: d1a0 233d a48a 0ebd 050f 223d 7c31 f4bd
000001e0: c8de 8b3d 4d9e 0fbd 8575 74bd b037 ba3d
000001f0: c554 26bd 6578 903d 63ef c83d f492 22bd
00000200: 468a 443d 1035 7cbc fe33 973d b021 043d
00000210: 9f27 45bd 09d0 543c 1573 df3d 2474 c8bd
00000220: be79 90bd c23d f3bd f713 a2bc 75ff d6bc
00000230: bb34 13be 5e5a 1cbe 3833 9b3b 4aa0 703d
00000240: 84c9 a33c 9ab4 9e3b eabd f3bd a709 e6bd
00000250: 1ed5 b43c 6e9e ff3d cf8c ca3d 6750 b2bc
00000260: b2f5 b73d 7606 aa3c c293 ecbd 8cef c5bd
00000270: 34ab fbbd 9315 f03d fced 183e bc75 df3d
00000280: a9ed 813d fc7f c23b 1596 443b 5c3f 983b
00000290: c76b b3bc 24ea aa3d c437 99bd d84c 0bbe
000002a0: be46 233e 47c6 233e eb23 e13c 879c cf3c
000002b0: 7b43 0cbe 949c eabd fabe e7bd b96f 0fbe
000002c0: eca4 c53d d5e1 103e bddb 6bbc e9f5 b13d
000002d0: 08f1 ef3d b2f5 73bd 7cb9 e6bd dea7 ffbc
000002e0: 8d03 13be c214 a03b 35bb 4fbd 2473 7e3d
000002f0: d914 193e 6190 37bd fcea 10be 626a 663d
00000300: c9d7 7dbd 2370 df3d 6248 073d 4034 f23d
00000310: d983 43bd 44a3 1e3e 0663 29bd 66e2 373d
00000320: 2a6b c3bc 15d5 ff3d 8db5 843c 81a1 173e
00000330: 3c5b cb3d e8e3 e83d 0f2b d73d 4751 eb3c
00000340: 854d 9abd bfb3 fb3d 3ff5 26be 7d56 dc3d
00000350: c50b 043e 89e6 553d d3e9 06bc 3228 67bd
00000360: bade db3d a4ba e9bd b05e a3bd 4801 a53d
00000370: 7323 813d c60d 79bd 4fa8 983d a567 343d
00000380: 1772 24be 835a a8bd 1b97 0e3c 55a7 abbd
00000390: 2bf6 9a3d 718d 883c 5dee 9c3d 77ab bc3d
000003a0: 4368 ecbd 97e7 0dbe 7755 fe3d c081 933c
000003b0: b52f 883d 788d a6bd 7554 843c 351e 35bb
000003c0: a1d9 fbbd 8766 bdbc 913b a83d bf09 7e3d
000003d0: 4877 17be 353d fabc 4de7 ed3c 2c53 023e
000003e0: 1269 fc3c 8b51 003e 41f8 003d 1289 aebd
000003f0: d546 613d caa6 c8bd fd52 9c3d dc76 7cbc
0.12854323 0.06531324 -0.011887439 -0.08989804 -0.05541297 0.057991505 -0.027495218 -0.01547809
0.040807594 -0.015134352 0.0054463265 -0.015061449 -0.0457953 -0.07413573 -0.023045374 0.09675799
-0.14603043 -0.015097448 0.07656969 -0.13450056 0.04978958 0.10056929 0.120735794 -0.06925594
0.018758645 -0.055371862 0.01961336 0.078683816 0.036699902 0.0019497767 0.14888568 0.08449077
-0.1042179 0.13156073 0.093313105 0.01821456 -0.0399043 0.110970266 -0.011648502 0.13901262
-0.05588919 0.012106459 -0.15062995 -0.003744875 -0.111836225 0.08215376 0.10528671 -0.070140585
-0.06459301 0.003509441 0.037580345 0.031701125 0.09652625 -0.13092342 0.06783639 0.09166691
-0.0156386 0.027036253 0.08064635 0.023209875 0.10193782 0.0031151343 -0.007968374 -0.077105
0.08188021 0.10567942 -0.11105509 -0.09776812 -0.13469303 -0.05649397 -0.1495044 -0.12959105
-0.14523348 -0.12402028 -0.156359 -0.12557113 -0.046665676 -0.080110416 -0.11316928 -0.05588174
-0.13991705 -0.14532095 -0.13246028 -0.08222882 -0.06757367 -0.13828462 0.11673075 -0.097199574
0.11157621 0.11531104 0.10469755 -0.03170095 -0.0058920225 -0.095812455 -0.090261474 0.039074812
-0.08377083 0.030135933 0.07386798 -0.12593845 0.022620352 0.066955365 0.007024041 -0.08765916
-0.062146727 0.033404097 -0.02333865 0.10759254 0.059386194 -0.14276226 -0.0017799461 -0.056972098
0.09180403 0.018057583 0.1442632 0.119424835 0.03994829 -0.034800187 0.039565105 -0.11923501
0.068296015 -0.035063077 -0.059682388 0.09092653 -0.040608186 0.070542134 0.098112844 -0.039690927
0.04798343 -0.01539351 0.073829636 0.03225869 -0.04813349 0.012989053 0.10910622 -0.09787777
-0.070544705 -0.11877014 -0.01978491 -0.026244858 -0.14375584 -0.15268847 0.0047363304 0.058746614
0.019993551 0.0048433067 -0.119014576 -0.1123231 0.022074278 0.1248139 0.09890138 -0.021766854
0.089824095 0.020755034 -0.1155162 -0.096648306 -0.12288514 0.11722865 0.14934534 0.10911128
0.06344158 0.005935667 0.0029996682 0.004646225 -0.021901978 0.0834544 -0.074813396 -0.13603532
0.15944955 0.15993606 0.027482947 0.025343193 -0.13697617 -0.11455646 -0.11315723 -0.14007463
0.09650597 0.14148648 -0.014395651 0.08689482 0.11715895 -0.059560485 -0.11265847 -0.031207975
-0.14356823 0.004885287 -0.050715644 0.062121525 0.14949359 -0.044815425 -0.1415214 0.0562538
-0.061973367 0.1091006 0.033028014 0.11826372 -0.04773316 0.15491968 -0.0413542 0.044893645
-0.02385481 0.12491814 0.016199851 0.14807703 0.09929511 0.11371595 0.1050626 0.02872528
-0.07534317 0.12290143 -0.16304491 0.10758684 0.12895115 0.05222181 -0.008234459 -0.056434818
0.10735841 -0.11412552 -0.079770446 0.08056885 0.063055895 -0.06080415 0.07453977 0.044044156
-0.16059147 -0.08220389 0.008703019 -0.083815254 0.07566484 0.016669007 0.07662652 0.09212392
-0.11543324 -0.13857876 0.12418645 0.018006206 0.066497244 -0.08132452 0.016153554 -0.0027636413
-0.12297369 -0.023120178 0.082144864 0.062021013 -0.14791596 -0.030546764 0.029040957 0.1272704
0.03081182 0.12531106 0.031486753 -0.08522238 0.05499919 -0.097974375 0.07633016 -0.015409198

transformer.layers.0.self_attn.in_proj_bias f4 [192]
00000000: 3011 8339 53fb ecbb 9524 e33b 1ca0 143b
00000010: 43b2 c6bb 03c3 6cba fbfe 94bb f07f 233a
00000020: 2c8d ab3b 3c21 42ba ac5b 093b e8a1 c8bb
00000030: d4d8 f239 7e45 e83b 8d59 d8b9 e153 b83b
00000040: 01c1 9ebb 87a1 bd3b 9ab5 013c 0b38 963a
00000050: dc8d 1e3c bdac 20bc 0065 adbb 52b1 653b
00000060: b14e 033c c7cb 94ba fee0 48bb f6d4 d4ba
00000070: 38c0 bb3b 3531 533c 25b6 f8bb 5c60 c739
00000080: d230 7c38 d922 16bc 7677 e8bb 5e6a 0f3c
00000090: 16a6 7b3b e6d7 0fbc 6242 17bc 29fc 1bbc
000000a0: 080c 5fba e678 ccbb 9c6b 10bc 9f65 d93b
000000b0: 60be 103b d628 103c f0e5 253c 3c8f 79bb
000000c0: a4dd 7ebb ee36 47bb a195 193c 56ae b8bb
000000d0: 3fb0 1cbc 5f48 00bc 7b31 1ebc 75e9 15bc
000000e0: af7b 9e3b d32a 2abc 8a18 163b c154 b13b
000000f0: cd00 3bba 5f6b 053a 60f0 003c d658 1c3c
00000100: 0e5b 0436 abf5 30b4 b975 e0b4 11c8 5334
00000110: 5114 0335 0562 5eb5 16c8 8935 9110 24b4
00000120: 61a4 28b5 942d b735 1ddf 6a34 63a3 b833
00000130: a5a5 23b6 5d1d 1834 cb27 1536 21bc 10b5
00000140: 4ebd aeb5 15db 06b5 c35a 6db5 ede2 3836
00000150: 9f7a 05b6 96e4 0bb5 3fe3 5b34 9bf6 01b6
00000160: e626 e635 7064 9ab3 60a4 51b5 9f5f 3eb4
00000170: ec7b 1c36 d4be b635 fdd3 13b4 4560 1ab5
00000180: bde4 e434 e407 bd34 9204 3135 18e7 3e36
00000190: b8bb 5a33 219a c5b4 c84a fc34 33b8 01b4
000001a0: 3f4b bb34 76df 9f35 788a 07b4 01b7 0434
000001b0: f2df 42b5 81dc b035 d89b 16b5 d0ec ca33
000001c0: 8e06 8334 7ec5 7ab4 3239 0536 a0f4 4233
000001d0: 4da2 d334 90f6 bc35 d52f 0b35 70e5 cab1
000001e0: 5a34 70b5 b582 64b5 779d 8db3 75fe 11b5
000001f0: b68b fd34 6bb9 bbb5 aa6d 7635 5f8f ce35
00000200: abee 0fba bd83 a73b ba96 b33b de0c 0f3b
00000210: 0c23 f73b 8439 053c d95d 09bc e302 25bb
00000220: 96c4 0d3c 750e c9bb a7b0 d13a 8450 833a
00000230: 86db 7eba b53e 053c 751f 993b 00ca 933b
00000240: 7da9 aebb ac10 e43b d871 d5bb bc00 c0bb
00000250: bb5a a9ba e268 133c a9e4 a9ba 739b 83bb
00000260: 2a7a 123c 1535 bcb9 dd70 28bb a73d b6bb
00000270: 1610 dd3a 822c 133a e64a 7f3b a92b 1dbb
00000280: 6c5e 60bb 4d27 043c c58f c63b eb51 e7bb
00000290: 1811 f83b a9fb 1a3a 0982 8e3b c6ac 1c3c
000002a0: 2142 f8b9 5f49 e4bb ad7e 97ba 218b 063b
000002b0: 9306 b43b f4e4 6fbb 374c 04bc 787c 013a
000002c0: ee85 723a 0b0f 953b 2621 1abc 8746 0c3c
000002d0: 2d75 043c cba0 2eba eea9 b83b 2d96 a2bb
000002e0: 0e0d 5a3b 55d5 293a 49e2 d9bb 7b64 5739
000002f0: 2e97 02bc 0db1 fdbb 86b1 23ba 325e 103c
0.00024999073 -0.0072321086 0.006931851 0.002267844 -0.006063731 -0.00090317446 -0.0045469976 0.0006237021
0.005235335 -0.0007405465 0.0020959182 -0.0061228164 0.00046319386 0.0070883622 -0.0004126545 0.0056252335
-0.004844785 0.005787078 0.007916832 0.0011460794 0.009677377 -0.009806809 -0.005291581 0.0035048318
0.008014367 -0.0011352234 -0.0030651684 -0.0016237784 0.0057297014 0.01289015 -0.0075900727 0.0003802803
6.012695e-05 -0.009163582 -0.007094319 0.008753387 0.0038398555 -0.008779502 -0.0092321355 -0.009520569
-0.00085085677 -0.006239998 -0.008814719 0.0066344286 0.0022086129 0.008798799 0.010125622 -0.003807976
-0.0038889432 -0.003039773 0.009374053 -0.005636017 -0.009563505 -0.007829755 -0.009655352 -0.009149899
0.0048365216 -0.010386187 0.002290281 0.005411715 -0.0007133603 0.0005089547 0.00786981 0.0095426645
1.9722534e-06 -1.6480651e-07 -4.1808906e-07 1.972369e-07 4.883087e-07 -8.284408e-07 1.0265528e-06 -1.5279717e-07
-6.282408e-07 1.3647827e-06 2.1874116e-07 8.5978876e-08 -2.438531e-06 1.4166785e-07 2.2225893e-06 -5.3917944e-07
-1.3019105e-06 -5.0237696e-07 -8.8421456e-07 2.7550225e-06 -1.988992e-06 -5.211417e-07 2.0478636e-07 -1.9366041e-06
1.7147656e-06 -7.189453e-08 -7.8097764e-07 -1.7729916e-07 2.3317943e-06 1.3615595e-06 -1.3767563e-07 -5.750956e-07
4.2634738e-07 3.5209735e-07 6.594429e-07 2.844672e-06 5.092781e-08 -3.6806253e-07 4.6993068e-07 -1.2081072e-07
3.4886213e-07 1.1911459e-06 -1.262323e-07 1.2360034e-07 -7.2596515e-07 1.3177197e-06 -5.6106137e-07 9.449434e-08
2.440542e-07 -2.3354912e-07 1.9851836e-06 4.539163e-08 3.9419902e-07 1.4078851e-06 5.185114e-07 -5.9050578e-09
-8.948315e-07 -8.512682e-07 -6.594467e-08 -5.4386993e-07 4.7226575e-07 -1.398655e-06 9.1801724e-07 1.5389923e-06
-0.00054905814 0.00511214 0.0054806145 0.0021827738 0.0075420197 0.008131389 -0.008384191 -0.0025178723
0.008652827 -0.0061357566 0.0015998081 0.0010018502 -0.00097220426 0.008132626 0.0046729394 0.0045101643
-0.005330263 0.0069599953 -0.0065138154 -0.0058594625 -0.0012920717 0.008997174 -0.0012961823 -0.0040163337
0.008940259 -0.00035897703 -0.0025702037 -0.0055615488 0.0016865756 0.0005614237 0.0038954555 -0.0023982322
-0.0034235967 0.008066011 0.006059619 -0.007059326 0.007570397 0.0005912134 0.0043489975 0.009562677
-0.00047351516 -0.0069667543 -0.0011558138 0.0020529705 0.005493948 -0.0036604973 -0.008074812 0.0004939507
0.00092515245 0.0045489124 -0.009407317 0.008561737 0.0080845775 -0.0006661533 0.0056354916 -0.00496175
0.0033271941 0.00064786273 -0.0066492897 0.0002054143 -0.007970614 -0.0077420534 -0.00062444096 0.00881152

transformer.layers.0.self_attn.out_proj.weight f4 [64, 64]
00000000: 5a37 0cbd 6870 0abd 16aa e63d cea4 433a
00000010: 4ce6 f8bd 3cf3 e13d 1fb8 dfbd d6ae a7bd
00000020: fd84 13bd 14ee 1f3d b1de ebbd 40ee d6bd
00000030: 8074 d4bc e622 c9bd 5bf5 9f3d a4fb b6bb
00000040: d185 053d f77e 3dbc 4b01 9fbd bddb 2fbd
00000050: a837 d5bd 3b4e 9fbd 555c 033e c8b5 c93d
00000060: 6fe1 f0bd 855f 8abd 0963 ddbd 853d f3bd
00000070: 680e c73d 21a9 fbbd 8f92 3a3d 4f3f 61bd
00000080: 62d8 3f3d b248 39bd d37a 25bc 9667 483d
00000090: 18f1 ef3d 82ce 20bd 9aac 6f3d d023 a9bd
000000a0: caa7 5ebd 32a2 e23d 3ac7 8ebd 6fbb af3b
000000b0: 6079 963c 0f67 afbd 738c d43d 6f78 923c
000000c0: bea1 033e e09e 953c df18 013e bfd5 b8bd
000000d0: 6c19 d1bd 4235 05be 8162 44bb 7959 ccbd
000000e0: 10db a43d 72b1 4ebc ce0f c2bd 81d1 40bd
000000f0: 5fe3 a6bd e56b 7abd 2810 e3bc 9231 89bd
00000100: 5f5b f33d a2f0 8a3d 068e b03d 8e27 543c
00000110: 9092 5fbb 9f91 36bd 1f7e debd 83fe 85bc
00000120: 10a0 ec3d ae1c 89bd 1df6 8c3d 15fd 463b
00000130: f298 c43d d66c cfbb 3e4b 283c 69e4 743d
00000140: ec89 36bc 4cdc dfbd 9e62 20bd 47d4 cebd
00000150: 9b75 2d3c 0053 62bd e0c9 993d c176 dc3d
00000160: 9815 d3bd 1e22 73bc 0df0 f13d e745 b53c
00000170: 526f f7bc 8efd a33d 8c85 a93d 0120 de3c
00000180: 4551 213d daea d1bc 4bb9 edbc 6876 bfbd
00000190: 8023 dbbc 75b5 28bd 355f 983d 3cc3 993d
000001a0: 5dd3 403d e91d 8e3c 1de3 943d 8175 cf3d
000001b0: b7c8 323d e873 a4bc efcc a3bd b454 8cbd
000001c0: 3834 99bd 51fa f43c c6f3 0abd a71e ac3c
000001d0: 40f7 29bd b8b6 90bc 6d8c cd3d be42 94bd
000001e0: 1221 bebd b421 9bbd 0cc1 ef3d 4f2c dfbd
000001f0: a454 f0bc 20d0 f73d 7439 04bd 9086 893d
00000200: 4361 8cbb 1b19 793c b1da 003e bb8b 0ebd
00000210: 71f3 2dbd 1752 e43d acb8 a9bd 23f1 9fbd
00000220: 00fc f63d 0e0c 823d deb7 b4bd 5145 733d
00000230: 01ed fa3d f36a cbbd 333f e13d 1b80 043d
00000240: d38a e93c 2501 ee3d 52d7 1b3d 15be f03c
00000250: 8474 fe3d f2e4 c4bc 955c 0bbd f486 c6bd
00000260: 15ba 9bbd 2ff7 fd3d d15a 5bbd d856 a6bc
00000270: 02e1 843d a0d7 9fbd 6a01 0f3b 66f1 8abd
00000280: 4565 6dbc 0bba ef3d f081 97bd 94eb 51bd
00000290: e558 ce3d e6be 54bc 837d a93d d021 8c3d
000002a0: 493f 8a3d af49 3dbd 87a3 a4bd 7f73 003e
000002b0: f681 703d 13f2 03bd 98e1 b6bc 7186 ccbd
000002c0: 9919 37bd 2e77 c73d d326 bbbd 9ec8 263c
000002d0: 4e39 cb3d 770d 703b e4a6 013e 0230 1ebd
000002e0: 872a 613d 6541 a8bd 594f 5bbd 9ae7 893c
000002f0: b898 b4bd a90b a7bd 0ba2 59bc 0d1c d7bd
00000300: d0b6 f83d 7da2 d63d 0d10 b7bd 1af8 cb3b
00000310: f319 9f3c a381 9a3d b4f6 613c dfbb dfbd
00000320: 1aba ddbc 64df 8ebb 2c60 00bd c36c 85bb
00000330: 11e1 1b3d 0583 393d da4c a7bd 2e64 d83d
00000340: 4f12 00be a30d bd3d 8deb 92bb a5fa 263d
00000350: bb00 4d3d 69d0 b43d 7029 a13d e329 c9bd
00000360: ca8a ef3d 3f10 863c 8f27 83bc 4b23 d73c
00000370: 5d3f ae3d d418 6dbd 14cf 2cbd c353 23bd
00000380: 4a21 313c 2418 303b 0ad6 ebbd 61e1 3abd
00000390: 4e15 be3d 5e45 d4bd 8f75 bfbd ac3e e83d
000003a0: 2b25 c63c d06d 63bc bc40 a53d 679a cabd
000003b0: 327c f03c 8ff6 ce3d 482a af3d e677 e6bc
000003c0: 714c cebd ec59 3abd 4949 8e3d 5ed6 133d
000003d0: 6cce d03c 8232 173d 4351 89bc 42e5 5bbc
000003e0: 9c74 96bd 9e5b 383d 35ec f9bd f63a 4a3c
000003f0: 911b b33c 8ee7 e0bd 30d2 94bd f63f f23d
-0.034232475 -0.033798605 0.1126291 0.00074632175 -0.12153301 0.110327214 -0.1092379 -0.08187644
-0.0360155 0.03904541 -0.115170844 -0.10494661 -0.025934458 -0.098211095 0.0781047 -0.005584197
0.03259832 -0.011565915 -0.077639185 -0.042934168 -0.10411006 -0.07778593 0.1282819 0.09849125
-0.11761748 -0.067565 -0.10809905 -0.11876968 0.09719545 -0.12288118 0.045549925 -0.054992016
0.046837218 -0.045235343 -0.010100084 0.048926912 0.11715907 -0.03925944 0.058514215 -0.08258784
-0.054359235 0.110660926 -0.06971593 0.00536292 0.018368423 -0.08564579 0.10378351 0.017879693
0.12854668 0.018264234 0.12607144 -0.09025144 -0.10209927 -0.13008597 -0.002996594 -0.09978003
0.08049595 -0.012615548 -0.09475671 -0.0470748 -0.08148836 -0.061138052 -0.027717665 -0.06698908
0.11882662 0.06784178 0.08620839 0.012948884 -0.0034114458 -0.04457247 -0.108638994 -0.016356712
0.11553967 -0.06694923 0.0688288 0.003036325 0.095994845 -0.006330113 0.010271845 0.05978814
-0.011141282 -0.1093069 -0.03915655 -0.100990824 0.010587121 -0.055254936 0.07509208 0.10764838
-0.10306853 -0.014839677 0.11813364 0.022128059 -0.030204449 0.08007346 0.08277425 0.02711487
0.039384145 -0.025624681 -0.029019019 -0.09348756 -0.026750326 -0.041188676 0.07440034 0.07507941
0.04707657 0.017348247 0.07269881 0.10129834 0.043648448 -0.0200748 -0.07998072 -0.06852093
-0.07480663 0.029904516 -0.033923887 0.02101071 -0.04149556 -0.017665252 0.1003655 -0.072392926
-0.092836514 -0.07574788 0.11706743 -0.10897123 -0.029337235 0.121002436 -0.032281354 0.06715119
-0.0042840554 0.0152037395 0.12583424 -0.034801226 -0.042468492 0.1114847 -0.082871765 -0.07809665
0.12059784 0.063499555 -0.088241324 0.059392277 0.12252236 -0.09932508 0.109983824 0.032348733
0.02850858 0.11621312 0.038047142 0.029387513 0.12424567 -0.02403495 -0.03402384 -0.09693709
-0.07603852 0.12400662 -0.053553406 -0.020305082 0.06488229 -0.07804799 0.0021820911 -0.06784324
-0.014489477 0.11705407 -0.073978305 -0.051250055 0.10075549 -0.012984967 0.082758926 0.06842387
0.06750352 -0.04621285 -0.08039003 0.12544058 0.05871769 -0.03221328 -0.022324368 -0.0998658
-0.044702146 0.097395286 -0.091382645 0.010179667 0.099230394 0.003662912 0.1266132 -0.038620003
0.054972198 -0.08215598 -0.05354247 0.016834069 -0.08818191 -0.08156521 -0.013283263 -0.10503397
0.12144244 0.10480211 -0.08938608 0.0062246444 0.019421553 0.075442575 0.013791729 -0.109245054
-0.02706628 -0.0043601263 -0.031341717 -0.0040718033 0.038056437 0.045290966 -0.08168955 0.10565983
-0.12506984 0.092311166 -0.0044836462 0.040766377 0.050049525 0.088288136 0.07869232 -0.098224424
0.11696394 0.016365169 -0.016010074 0.026261946 0.08508179 -0.057885006 -0.042189673 -0.039874803
0.010811159 0.0026869858 -0.11515434 -0.045625094 0.09281407 -0.10364793 -0.093485944 0.11340079
0.024187645 -0.013881162 0.08068988 -0.09892731 0.029356096 0.10105621 0.085529864 -0.028133344
-0.10073174 -0.045495912 0.06947572 0.03609311 0.025489055 0.036913402 -0.016762381 -0.013421359
-0.0734646 0.045009248 -0.12203256 0.012343159 0.02186373 -0.109816656 -0.072666526 0.11828606

transformer.layers.0.self_attn.out_proj.bias f4 [64]
00000000: 3787 01bc 77cb 123c 3fe3 b23b 2592 1c3b
00000010: c3c2 f33a f920 293b 45b3 91bb 441e 26bb
00000020: 21fe 983a fcb5 0f3c 2505 aa3b 8dcf 39bb
00000030: 306d 9ebb bda9 813b 375e 84bb 36f8 8dbb
00000040: 9609 bfba e74e 40bc 4547 88bb 2510 f9b9
00000050: eafc 8cbb 3a39 063c 1a4a 9ebb 7322 a53a
00000060: 9864 b33b b8fe 8a3a fe3f 7db9 7fe7 b7ba
00000070: 2f4e e1ba 3872 043c a719 a83b 67b4 8c3b
00000080: fb29 efbb 44e8 5abb 21d6 cf3b aa7d ad3a
00000090: f280 a83b f16f 84bb 9db2 b43b 257f 12bc
000000a0: 3ffe 8cbb d40a 293c fef0 cfbb fda0 ecba
000000b0: edb3 21bc f222 08bc e7da 20ba 7e07 763b
000000c0: 1c8e d53a bc94 4e3b 9a92 883b 5a84 f1bb
000000d0: dd83 e2bb 3dd1 ca3b 8a8f e1ba 55c8 feb9
000000e0: ef1f d3ba 64c9 8b3b 562d 783b 33fb 39bc
000000f0: 2df6 033b a4ec 4cbb 8ed1 32bc 2ee8 413b
-0.007905773 0.008959643 0.0054592188 0.002389082 0.0018597472 0.0025807007 -0.0044464194 -0.002534763
0.0011672416 0.008771416 0.0051886016 -0.002835247 -0.0048347935 0.003957002 -0.0040395516 -0.0043325676
-0.0014575 -0.011737562 -0.0041588866 -0.0004750501 -0.0043026106 0.008192355 -0.004830611 0.0012598768
0.005474638 0.0010604477 -0.00024151799 -0.0014030783 -0.0017189438 0.0080838725 0.005130011 0.0042939666
-0.0072987056 -0.0033402601 0.006342665 0.0013236303 0.0051423246 -0.004041665 0.0055144564 -0.008941446
-0.0043027694 0.010317523 -0.006345867 -0.0018053349 -0.009869558 -0.008309113 -0.00061361346 0.0037541087
0.0016292962 0.0031521758 0.004167867 -0.007370514 -0.006912692 0.006189494 -0.0017208916 -0.00048595914
-0.0016107539 0.004265951 0.003786882 -0.0113513945 0.0020135746 -0.0031268978 -0.01091422 0.0029587853

transformer.layers.0.linear1.weight f4 [128, 64]
00000000: 288e c0ba 4b6a fa3c 49de dfbd ecec 673d
00000010: 23ae 053c 5160 083d b4d8 7b3d 2f04 9fbd
00000020: 084d 03be b827 e4bb 8e05 a4bd 213f 033e
00000030: 7e68 493d 2a41 0b3c 73a0 353c 169e 243d
00000040: 3f2e e5bd b16f 49bd e9a7 463d 8d69 86bc
00000050: 14ff 90bd 0f11 a63d 9ea3 5fbb a639 963d
00000060: 5bda 61bd dce2 bd3d 052f d7bc 15ff bdbc
00000070: a9a7 963d 47af a93c e9d1 ffbd 31ec e5bd
00000080: fa17 ec3d ec00 9839 7aac 933d 1315 bf3d
00000090: 1f2d fe3d 86a6 543d 3f74 dfbc cf09 9cbd
000000a0: 8096 eebc 0aca fabd 2806 f0bd 70a0 ad3d
000000b0: da89 72bb 1413 e93d 81e7 b03d 50de 043c
000000c0: 96b2 4c3d 9bea 513c 131e 8f3d dbb1 c4bd
000000d0: 2ab1 8a3d ec70 f83b 5cc9 9cbd c3c2 e23d
000000e0: 7884 32bd 5852 083e 2aa1 913d b0f8 003e
000000f0: 6c26 b6bd edcf 153d 085e 083e 7395 073b
00000100: 1f18 563d 3a57 ccbd 6417 a5bd 9a7e a1bd
00000110: 93f0 e43d adac 893d 9b49 983d 8472 5f3d
00000120: 483f bbbd cc79 13bc 63b9 d0bd 755f 8cbd
00000130: b18f 5bbd 0421 ccbc 79e1 063d a85a 103d
00000140: 0acb 403d 61c9 2f3d 6489 77bd d852 c73c
00000150: f770 783c 0c2d f1bd fd60 a3bc b359 c63d
00000160: d396 813c 7ae7 e73d ed01 a23d 48b5 e4bd
00000170: 5d75 a1bc 12ee bf3d e47d af3d eebe cfbc
00000180: 8416 943d 8595 ad3d 8b29 cfbd 5cc1 9fbd
00000190: 7b33 ce3d d4a8 d13c 40cd 8fbd 2856 e93d
000001a0: 1689 39bd 9537 a43d 58db 4b3c 3564 af3d
000001b0: 6026 3cbd 560b 50bd 21d7 e13c e29e d9bd
000001c0: 87aa efbd 5f30 fe3d 6a8a e4bc ad3e 7cbd
000001d0: cd2a e5bd b751 313d 7898 89bb e49c 8d3d
000001e0: 8e70 553d ca31 8cbc 7a09 06bd 7879 253d
000001f0: 365d 39bd fc10 633d 14b3 1b3d 2e4a 4abc
00000200: ff1a e9b9 0522 b1bd 460c 6e3d e94a 7cbc
00000210: 9996 77bc b3bd aebd 8c95 603c 5fc7 85bd
00000220: 1bfa bdbd ea96 8a3c 8557 9d3d 00e5 b1bd
00000230: 4127 debd 7c21 a8bd c21f 04bc 86e4 033e
00000240: d111 c4bc 3093 283d 9381 81bd 1d61 cd3d
00000250: efc7 dc3d 47b4 003d fae7 efbd 1f3c 353c
00000260: bf5f 83bd 6d0f dcbc fdf5 e6bd eae7 c13c
00000270: 83fc 8abd 6e18 583d d7ec 6b3d 8fec 65bd
00000280: 2864 8ebc 7b4e ecbd f772 bd3d 8858 c33c
00000290: ab0c 853d 2728 c5bc c1e3 cebd bf30 c03b
000002a0: 3a4b 01be 95c9 9b3c 13e8 e6bd 8b75 f23b
000002b0: 5129 523d 3540 41bd a2b2 a7bc d359 893b
000002c0: e51f 81ba 73d9 25bd d87d 6d3d 6a72 7b3d
000002d0: 9bd0 913c 67b2 8a3d e2c1 2e3d d8e4 9e3d
000002e0: 9188 f5bd 8c65 8cbb 9ad8 24bd 0edf a43d
000002f0: 1c5d febd 5304 e03b 4d1b 323d a6bd b3bd
00000300: 7af6 0b3d 7d03 cfbd 5635 253d c0d5 71bc
00000310: 6af6 033d 18c9 783d bc56 bbbd 868f cc3c
00000320: 96d7 d7bd 2ded f03d 60f0 b9bc 69b4 873c
00000330: b82e acbd 0a85 e13d a22b 40bd c078 23bd
00000340: 4d22 ca3d 37d5 fb3d 5f92 df3d 9baf 32bc
00000350: cea7 4e3c ce52 e43d 5127 a73b bcc8 483d
00000360: fc4b ddbc 920c 8d3d 1208 e43d 1394 e2bd
00000370: eb73 2fbd f964 8ebc 54bb da3d 0590 f8bd
00000380: e7c7 a03d fce1 a33d 5e19 89bc 0e95 b8bd
00000390: 849c e8bd d418 653d e739 6e3c 031c 543c
000003a0: 6215 f4bd 5b80 3ebc 4891 8abd 3f17 ce3d
000003b0: 2572 18bb 3ed0 94bc 420a bd3d 1ffe edbd
000003c0: f4c8 293d e1d8 d93c 7d29 cebd 057c fd3c
000003d0: a93f d83d 35b9 aa3d fc66 8b3d 1605 78ba
000003e0: 3d4f 59bd 37de e63d 3c28 eb3d 3b64 9b3d
000003f0: af0c 76bd d2f0 2abd bd12 df3d 06a8 1dbd
-0.0014690803 0.030568263 -0.109310694 0.05662243 0.008159193 0.03329498 0.06148596 -0.0776447
-0.12822354 -0.0069627427 -0.08008872 0.1281705 0.049171917 0.008499423 0.011085617 0.040189825
-0.11190461 -0.049178783 0.048499975 -0.016407752 -0.07079902 0.081087224 -0.0034124623 0.07335214
-0.05513988 0.092717856 -0.026267538 -0.023192922 0.073561974 0.020713462 -0.12491209 -0.112266906
0.11528011 0.00028992386 0.07210632 0.093301915 0.1241095 0.05191662 -0.02727711 -0.07619058
-0.029124498 -0.12245567 -0.11719924 0.08477867 -0.0037008435 0.11380592 0.08637906 0.008109644
0.049975 0.012812282 0.06988158 -0.09604236 0.067720726 0.0075818207 -0.07655594 0.11072304
-0.043583363 0.13312662 0.07110818 0.12594867 -0.08894047 0.036575247 0.1331712 0.0020688444
0.052269097 -0.09977575 -0.08061102 -0.078854755 0.111786984 0.067223884 0.07435914 0.05455257
-0.09142929 -0.009001207 -0.1019161 -0.068541445 -0.05360383 -0.024918087 0.03292987 0.035242707
0.047068633 0.04291666 -0.06043376 0.024331495 0.015163652 -0.1177617 -0.019943709 0.096850775
0.015818989 0.113234475 0.079105236 -0.11167389 -0.019709283 0.0937158 0.085689336 -0.025359597
0.07230857 0.08475784 -0.101153456 -0.07800552 0.10068413 0.025593199 -0.0702157 0.11393386
-0.04529675 0.08018414 0.012442432 0.08564035 -0.045935035 -0.05079206 0.027568402 -0.106260076
-0.117024474 0.1241157 -0.027898032 -0.06158321 -0.11189804 0.04329082 -0.004199084 0.0691469
0.052109294 -0.017113585 -0.03272388 0.040399045 -0.04525491 0.05543612 0.03801258 -0.012346787
-0.00044461337 -0.08649067 0.058117174 -0.015398719 -0.015111589 -0.08532276 0.01370753 -0.06532168
-0.092762195 0.016917665 0.07682709 -0.086862564 -0.10847331 -0.08209512 -0.008064212 0.12880144
-0.023934277 0.041155994 -0.063235424 0.100282885 0.10780322 0.031421926 -0.11714168 0.011061697
-0.064147465 -0.026862824 -0.11277387 0.023670156 -0.06786444 0.052757673 0.057598915 -0.056133803
-0.017381743 -0.115384065 0.092504434 0.023845926 0.06496557 -0.024066998 -0.10102034 0.005865186
-0.12626353 0.01901702 -0.112747334 0.007399266 0.051308934 -0.047180373 -0.020470921 0.004191616
-0.0009851424 -0.04049058 0.057981342 0.06138841 0.017799666 0.06772309 0.04266537 0.07758492
-0.119889386 -0.0042845663 -0.04024563 0.08050357 -0.12420103 0.006836453 0.043483067 -0.08776407
0.034170605 -0.10108087 0.04033407 -0.014760435 0.03221742 0.060738653 -0.09147403 0.024970781
-0.10539167 0.11763988 -0.022697628 0.016565518 -0.084073484 0.11011703 -0.04691661 -0.039910078
0.098698236 0.12296527 0.1091659 -0.010906125 0.01261325 0.11148606 0.0051011224 0.04901956
-0.027013771 0.06887163 0.11134352 -0.11063399 -0.042835157 -0.017382132 0.10680261 -0.121368445
0.07850628 0.080020875 -0.016735729 -0.09012805 -0.11357978 0.05593188 0.014540172 0.012946132
-0.11918141 -0.011627282 -0.067659914 0.100630276 -0.0023261395 -0.018165704 0.09230472 -0.116207354
0.04145141 0.026592674 -0.10066507 0.030942926 0.10559017 0.08336107 0.06806752 -0.0009461207
-0.053054083 0.11272853 0.114822835 0.07587477 -0.06007069 -0.04173357 0.10892246 -0.038490318

transformer.layers.0.linear1.bias f4 [128]
00000000: 837e 0e3d 3eb6 743d 64dc 413c 2cbb 80bd
00000010: 4ec3 923d 5ce3 70bd 2353 0abd 3293 c83d
00000020: 5d00 cabd 55af eabd 9a42 49bd a6ad f53d
00000030: c6ee c1bc 4991 b53d 5154 bbbd 9328 5abb
00000040: 1dc4 683d 3ee6 71bc 5a64 04be a2d0 98bd
00000050: 8779 08bd a0af 80bd ee71 78bd 9520 593d
00000060: 9405 b33d 47ce cebd 3f62 4c3a a592 d6bc
00000070: 5053 003e 112a d43c c42b e93d d1c7 0bbd
00000080: f19d 9e3c 0ee6 ccbd a5e6 613d 5c71 3f3d
00000090: c2ed 913d 5935 803d 3676 c43d 6fe9 80bd
000000a0: f9b7 81bd e832 e53c 1d59 74bd d07d b33d
000000b0: 538d 823d 27f3 983d 160b dabd 8ef0 42bd
000000c0: 2062 813d d779 c73d 68fc 6b3d 74f8 e23c
000000d0: 286e e5bd 39c3 f43d 7eba e33d 8b04 febc
000000e0: 0726 b3bd 61bd 9cbd f2fd 253c f9bd ffbc
000000f0: 3d30 fb3d 65b3 cfbd 07f2 8d3d f7a3 a4bd
00000100: f543 afbd 1c23 123a 5b6c 9ebd 39cb 183d
00000110: e896 da3d df45 b4bc 0f6f e4bd 9f00 89bd
00000120: bb1a c73c 9b51 ce3d fcc5 e53d d073 e53c
00000130: d730 de3c 84ff 183d e5ed 653d b074 1b3d
00000140: a9d1 e0bd e55e 1ebd d395 9f3d c29b a8bd
00000150: 42b1 b03c 6c36 3b3b 4690 3fbc dc5b e83d
00000160: bcee a6bd 6b37 e4bd e0b0 f73d 2330 15bd
00000170: 1062 c83d d205 4bbc c520 e7bd a51d 863c
00000180: 2860 bfbd 4e5b e7bd b28a eebd a14b 883d
00000190: 2bfe 9a3d 3168 e73d ab20 c53d bd3b d83c
000001a0: cd5a a3bd 8405 07be 1eff a63d 0901 e83c
000001b0: 3385 303d e0bc da3d fa20 d5bc 38c4 a7bd
000001c0: 0f53 73bd 60b3 3f3b c00a 91bd bc87 61bd
000001d0: 397c d7bd 9931 df3c 543e 9e3d 5a5e cc3d
000001e0: 134e c13d 189c d0bd efb7 cdbd f308 163d
000001f0: 441d f5bd d9b4 cd3b 1b11 4b3d e1b8 d0bd
0.03478862 0.059744112 0.01183233 -0.062857 0.07166158 -0.058810577 -0.03377069 0.097937
-0.098633505 -0.11459223 -0.04913578 0.119960114 -0.023673426 0.088656016 -0.091469415 -0.0033288344
0.056827653 -0.014764367 -0.12928906 -0.074616686 -0.033319023 -0.06283498 -0.060655527 0.05300959
0.08741298 -0.10097938 0.0007796622 -0.026192972 0.12531781 0.025898965 0.11385301 -0.034126107
0.019362422 -0.10004817 0.0551516 0.046738967 0.07125427 0.06260175 0.095928594 -0.06294524
-0.06333918 0.027978376 -0.059655298 0.08764231 0.06374612 0.07468253 -0.10646646 -0.047592692
0.06317544 0.09740036 0.05761376 0.027706362 -0.11202651 0.11951298 0.11119555 -0.031008026
-0.087474875 -0.07653309 0.010131346 -0.031218516 0.1226506 -0.10141639 0.06930929 -0.08039086
-0.08557884 0.000557469 -0.07735511 0.037303183 0.10673314 -0.022005973 -0.11153995 -0.066895716
0.024304738 0.10074159 0.11219403 0.028009325 0.027122898 0.037353054 0.056135077 0.03795308
-0.109774895 -0.038664717 0.077922486 -0.082328334 0.021568898 0.0028566374 -0.011692112 0.11345646
-0.08151004 -0.11143383 0.12094283 -0.03642286 0.09784329 -0.012391524 -0.11285547 0.016371557
-0.09344512 -0.11296712 -0.11647548 0.0665505 0.0756801 0.1129917 0.096253715 0.026395673
-0.07976303 -0.13185698 0.081541285 0.028320806 0.04309578 0.10680556 -0.026016701 -0.08191723
-0.059405383 0.0029251203 -0.070821285 -0.055061087 -0.105217405 0.02724533 0.07726732 0.09978934
0.094387196 -0.101860225 -0.10044848 0.03662963 -0.119684726 0.0062776622 0.04957686 -0.10191513

transformer.layers.0.linear2.weight f4 [64, 128]
00000000: 28cd 86bd 2251 603d b5d6 9dbd 6769 c23c
00000010: dbd6 9cbd 9042 5cbc 7f5a ab3d 7a56 88bc
00000020: 7aa8 863d 128b 87ba 93f5 43bc 8aaf 2b3d
00000030: 792b 693d 6b70 49bd d4b7 b7bc 8856 243b
00000040: 7137 a23d c435 963c c743 72bd c69a 27bc
00000050: a27f b3bd 7376 6abc 242e 913d 972e 9cbd
00000060: 55de a23d a269 77bb 0f04 823d f1c3 613d
00000070: d7ca d93c 66d7 1c3d d5cd aebb 6764 f9bc
00000080: 322e 1c3c 3657 3fbd e651 013d 6609 6ebd
00000090: a21c 763b 959b a1bb c1b1 013c 38c7 83bd
000000a0: f148 b43c c579 87bd 7db9 8fbd 2ffa a6bd
000000b0: e1d8 23bd 5ff7 273d 9341 113d 6cd5 ea37
000000c0: 1489 043d e9d0 30bd 79f6 90bd aa95 603d
000000d0: 852b 38bd d871 373c 6fca 9a3a aa4e 1c3d
000000e0: 9165 42bc d99f 273d e4a1 a8bd f244 c83d
000000f0: 5a78 bcbd 10eb 453d 47ec 9c3d 6996 a4bd
00000100: e45e 2e3d 5a85 2fbd 3bb5 b8ba 0cc9 07bc
00000110: 5024 1bbd 0403 4fbd 244c f8bc c55e ba3c
00000120: eab4 93bd be2a 2e3d b092 6abd f930 7fbd
00000130: dc15 d13b 5d31 0a3d e1f1 85bd 12ff a5bd
00000140: a764 ffbc 0168 2bbd 7f8f 9abd 558c 69bd
00000150: dd0e 16bd 2112 bbbd 586b 33bc cd04 30bd
00000160: 1791 aabd 0c40 263d f7b6 8fbd f665 0e3d
00000170: 25b3 98bd 5110 7fbb 080b 82bd 6dbe 64bd
00000180: fcc7 91bd 847c 48bd e0bb 62bd 6d5e b3bc
00000190: e50a 53bd 2f81 c33d bac2 a2bc 42ea 91bc
000001a0: 10ab eeba f420 253d 4a26 3f3d 3121 66bd
000001b0: 81d4 e73b 70a0 58bd 7950 733d 2eaa 2cbd
000001c0: f49f 10bd e134 a4bd 6128 513d 53ab 173c
000001d0: 7f21 2bbd 1a3a 8bbc 144c 9abc 2c4b 5c3d
000001e0: bf55 38bd 2b51 fabc 8ee8 abbc 3037 853c
000001f0: 2bfe b33d 1751 8bbd 4236 503d 3d54 07bc
00000200: 46ec 673c c26e 92bd 4876 a23d e2ff 5d3d
00000210: d433 223d 9432 bfbc 7593 5fbd 90fd 2d3d
00000220: 5a6e 92bd 854d b83b f3a5 57bd d37c ae3d
00000230: b006 8a3c a425 253d e35b 763d dd04 b0bc
00000240: e106 e03c 22de ed3c 2525 133d 8486 74bc
00000250: e44c 87bd 9719 df3c e74a 5a3c a847 8abd
00000260: ec8d 0c3d 92f7 a43c eb59 63bd 204f 063c
00000270: 4f59 b3bd b0d0 90bd 8f11 c6bc 4931 d639
00000280: c225 4c3d ad43 c43b f055 6ebb 7cc0 943d
00000290: 6df5 f53c d65d 613c 3d68 9ebd 07dc 373d
000002a0: ec26 a3bc b692 57bd eaa7 a0bd 869a 32bc
000002b0: 068f 3abd 8b6d 4e3d 7c24 a8bd 3fd1 b73d
000002c0: fb22 00bd 35ca 2d3d abb9 193c cd40 19bd
000002d0: 618a c9bc f2cb 3d3d d08d 41bd 96ae bc3d
000002e0: 623a a43d df65 6ebc 29b0 a43d 30eb 303d
000002f0: 27c5 7a3d 83ea 3bbd 1472 083c 9c46 49bd
00000300: 2cc3 c03b e4a0 9e3d fb09 8b3d 9f86 96bd
00000310: edad b6bd fdea 34bd 53f5 aabd 6f82 153d
00000320: 8341 923d b868 f7bc 0acc 013d 0ab9 9e3d
00000330: 7080 a0bd ac4a e1bc 00ed 6bbb 042a 883b
00000340: 332b 82bd c57d 34bd 2599 a7bd f173 8f3d
00000350: b041 b7bc 8ba1 0cbd 6c15 44bc 7361 8c3d
00000360: 058e 86bd c65e af3d 8654 13bc e367 0639
00000370: c637 7ebd 9418 c6bb 9ce7 353c 9ef8 89bd
00000380: 6d1a 1ebd 9cd7 67bd bdb0 6f3d 3ec1 63bd
00000390: 94b7 443d b47e 91bd da14 7abd 9ee5 973d
000003a0: b059 9ebd efd6 9738 efaf 163d 98b9 3e3d
000003b0: f9d3 45bd dbeb 3fbc ca0c ce3d 1248 80bd
000003c0: e9c7 82bd 6e04 2cbd e9d9 b3bd 4de4 aa3d
000003d0: fc7c 5a3d f1e8 d83c 3f6d 90bd ccff b63b
000003e0: 53c1 883d 0f6a ef3c 3eca 873d beff 98bd
000003f0: ba6c a8bd 4528 093d 172f 76bd f8d9 2abd
-0.06582099 0.054764874 -0.07706968 0.0237319 -0.07658168 -0.013443604 0.0836687 -0.016642798
0.06575103 -0.0010341129 -0.011960405 0.041915454 0.056926224 -0.049179476 -0.022426523 0.002507599
0.07920731 0.018336184 -0.05914667 -0.010229772 -0.087645784 -0.014310467 0.07088879 -0.07626074
0.07952563 -0.003775217 0.0634843 0.055118505 0.02658598 0.038291357 -0.0053345957 -0.030443383
0.009532498 -0.04671403 0.031572245 -0.05811443 0.0037553688 -0.004931877 0.007915915 -0.06434482
0.022007437 -0.066150226 -0.07017801 -0.081531875 -0.040001754 0.041007396 0.035462927 2.7994356e-05
0.03235729 -0.043167982 -0.07078261 0.05483023 -0.04496338 0.011196576 0.0011809597 0.038160957
-0.011865036 0.040923927 -0.08234003 0.09778775 -0.09202643 0.048319876 0.07662254 -0.08036501
0.042570964 -0.042851783 -0.0014092097 -0.008287679 -0.037876427 -0.050539985 -0.030309744 0.022750268
-0.07212241 0.04252123 -0.0572688 -0.062302563 0.0063807797 0.033738483 -0.06540275 -0.081052914
-0.031175924 -0.041847233 -0.07546901 -0.057018597 -0.03663527 -0.09134317 -0.010950886 -0.04297333
-0.08328455 0.040588424 -0.0701732 0.034765206 -0.07456044 -0.0038919637 -0.0634976 -0.055845667
-0.07118222 -0.048946872 -0.055354953 -0.021895612 -0.05152406 0.09546124 -0.019868243 -0.017811898
-0.001820894 0.04031463 0.046667375 -0.056183998 0.007074893 -0.05288738 0.059402917 -0.042154483
-0.035308793 -0.08017898 0.0510639 0.0092571555 -0.04177999 -0.016995478 -0.018835105 0.053782627
-0.04500365 -0.030556282 -0.020984914 0.016261667 0.08788713 -0.06802576 0.050832994 -0.00825983
0.014155453 -0.071500316 0.079327166 0.054199107 0.03960021 -0.023339547 -0.054583985 0.042478144
-0.07149954 0.0056244754 -0.052648496 0.08519902 0.016848892 0.0403191 0.060146224 -0.021486694
0.02734703 0.029036585 0.035924096 -0.014924649 -0.066064626 0.027233882 0.013323522 -0.067519486
0.034315035 0.020137582 -0.055505674 0.008197576 -0.08757269 -0.07071054 -0.024178294 0.0004085398
0.049840696 0.005989513 -0.003636714 0.07263276 0.030024255 0.013755282 -0.077347256 0.04488757
-0.01991602 -0.05263015 -0.07844527 -0.010901099 -0.045546554 0.050397437 -0.08210084 0.089754574
-0.03128336 0.042429168 0.009382646 -0.037415314 -0.024602117 0.046337076 -0.047254384 0.09212987
0.08018948 -0.014550655 0.080414124 0.043193042 0.061223175 -0.045877945 0.00832798 -0.049139604
0.0058826413 0.07745531 0.06789013 -0.07349896 -0.089198925 -0.044169415 -0.08347573 0.036501344
0.071414016 -0.030201301 0.031688727 0.07750137 -0.078369975 -0.027501427 -0.0035999417 0.0041553993
-0.06355896 -0.044065256 -0.08183507 0.07004536 -0.02237019 -0.034333747 -0.011967998 0.068545245
-0.06570057 0.085629985 -0.00899232 0.00012817937 -0.06206491 -0.0060454104 0.011102583 -0.06736873
-0.03859942 -0.056602105 0.05851816 -0.055604212 0.048026636 -0.07104245 -0.06105504 0.07416843
-0.0773195 7.2402756e-05 0.036788877 0.046563715 -0.048297856 -0.011713947 0.10061033 -0.06263746
-0.06385786 -0.041996412 -0.087817974 0.08344326 0.05334185 0.026478263 -0.07052087 0.0055846926
0.06677499 0.029225377 0.066303715 -0.07470654 -0.08223863 0.03348567 -0.060103502 -0.041711777
